{"format": "graph-model", "generatedBy": "2.3.1", "convertedBy": "TensorFlow.js Converter v2.7.0", "userDefinedMetadata": {"signature": {"inputs": {"input_ids:0": {"name": "input_ids:0", "dtype": "DT_INT32", "tensorShape": {"dim": [{"size": "1"}, {"size": "-1"}]}}, "attention_mask:0": {"name": "attention_mask:0", "dtype": "DT_INT32", "tensorShape": {"dim": [{"size": "1"}, {"size": "-1"}]}}}, "outputs": {"Identity:0": {"name": "Identity:0", "dtype": "DT_FLOAT", "tensorShape": {"dim": [{"size": "1"}, {"size": "-1"}, {"size": "13"}]}}}}}, "modelTopology": {"node": [{"name": "StatefulPartitionedCall/classifier/Tensordot/Const", "op": "Const", "attr": {"value": {"tensor": {"dtype": "DT_INT32", "tensorShape": {"dim": [{"size": "1"}]}}}, "dtype": {"type": "DT_INT32"}}}, {"name": "StatefulPartitionedCall/classifier/Tensordot/axes", "op": "Const", "attr": {"value": {"tensor": {"dtype": "DT_INT32", "tensorShape": {"dim": [{"size": "1"}]}}}, "dtype": {"type": "DT_INT32"}}}, {"name": "StatefulPartitionedCall/classifier/Tensordot/GatherV2_1/axis", "op": "Const", "attr": {"value": {"tensor": {"dtype": "DT_INT32", "tensorShape": {}}}, "dtype": {"type": "DT_INT32"}}}, {"name": "StatefulPartitionedCall/classifier/Tensordot/Const_1", "op": "Const", "attr": {"dtype": {"type": "DT_INT32"}, "value": {"tensor": {"dtype": "DT_INT32", "tensorShape": {"dim": [{"size": "1"}]}}}}}, {"name": "unknown_98", "op": "Const", "attr": {"value": {"tensor": {"dtype": "DT_FLOAT", "tensorShape": {"dim": [{"size": "256"}, {"size": "13"}]}}}, "dtype": {"type": "DT_FLOAT"}}}, {"name": "StatefulPartitionedCall/mobilebert/encoder/layer_._1/output/bottleneck/dense/Tensordot/Const", "op": "Const", "attr": {"dtype": {"type": "DT_INT32"}, "value": {"tensor": {"dtype": "DT_INT32", "tensorShape": {"dim": [{"size": "1"}]}}}}}, {"name": "StatefulPartitionedCall/mobilebert/encoder/layer_._1/output/bottleneck/dense/Tensordot/axes", "op": "Const", "attr": {"value": {"tensor": {"dtype": "DT_INT32", "tensorShape": {"dim": [{"size": "1"}]}}}, "dtype": {"type": "DT_INT32"}}}, {"name": "StatefulPartitionedCall/mobilebert/encoder/layer_._1/output/bottleneck/dense/Tensordot/GatherV2_1/axis", "op": "Const", "attr": {"value": {"tensor": {"dtype": "DT_INT32", "tensorShape": {}}}, "dtype": {"type": "DT_INT32"}}}, {"name": "StatefulPartitionedCall/mobilebert/encoder/layer_._1/output/bottleneck/dense/Tensordot/Const_1", "op": "Const", "attr": {"value": {"tensor": {"dtype": "DT_INT32", "tensorShape": {"dim": [{"size": "1"}]}}}, "dtype": {"type": "DT_INT32"}}}, {"name": "unknown_94", "op": "Const", "attr": {"dtype": {"type": "DT_FLOAT"}, "value": {"tensor": {"dtype": "DT_FLOAT", "tensorShape": {"dim": [{"size": "128"}, {"size": "256"}]}}}}}, {"name": "StatefulPartitionedCall/mobilebert/encoder/layer_._1/output/dense/Tensordot/Const", "op": "Const", "attr": {"dtype": {"type": "DT_INT32"}, "value": {"tensor": {"dtype": "DT_INT32", "tensorShape": {"dim": [{"size": "1"}]}}}}}, {"name": "StatefulPartitionedCall/mobilebert/encoder/layer_._1/output/dense/Tensordot/axes", "op": "Const", "attr": {"dtype": {"type": "DT_INT32"}, "value": {"tensor": {"dtype": "DT_INT32", "tensorShape": {"dim": [{"size": "1"}]}}}}}, {"name": "StatefulPartitionedCall/mobilebert/encoder/layer_._1/output/dense/Tensordot/GatherV2_1/axis", "op": "Const", "attr": {"value": {"tensor": {"dtype": "DT_INT32", "tensorShape": {}}}, "dtype": {"type": "DT_INT32"}}}, {"name": "StatefulPartitionedCall/mobilebert/encoder/layer_._1/output/dense/Tensordot/Const_1", "op": "Const", "attr": {"dtype": {"type": "DT_INT32"}, "value": {"tensor": {"dtype": "DT_INT32", "tensorShape": {"dim": [{"size": "1"}]}}}}}, {"name": "unknown_90", "op": "Const", "attr": {"dtype": {"type": "DT_FLOAT"}, "value": {"tensor": {"dtype": "DT_FLOAT", "tensorShape": {"dim": [{"size": "1024"}, {"size": "128"}]}}}}}, {"name": "StatefulPartitionedCall/mobilebert/encoder/layer_._1/intermediate/activation/mul/x", "op": "Const", "attr": {"dtype": {"type": "DT_FLOAT"}, "value": {"tensor": {"dtype": "DT_FLOAT", "tensorShape": {}}}}}, {"name": "StatefulPartitionedCall/mobilebert/encoder/layer_._1/intermediate/activation/add/x", "op": "Const", "attr": {"dtype": {"type": "DT_FLOAT"}, "value": {"tensor": {"dtype": "DT_FLOAT", "tensorShape": {}}}}}, {"name": "StatefulPartitionedCall/mobilebert/encoder/layer_._1/intermediate/dense/Tensordot/Const", "op": "Const", "attr": {"dtype": {"type": "DT_INT32"}, "value": {"tensor": {"dtype": "DT_INT32", "tensorShape": {"dim": [{"size": "1"}]}}}}}, {"name": "StatefulPartitionedCall/mobilebert/encoder/layer_._1/intermediate/dense/Tensordot/axes", "op": "Const", "attr": {"dtype": {"type": "DT_INT32"}, "value": {"tensor": {"dtype": "DT_INT32", "tensorShape": {"dim": [{"size": "1"}]}}}}}, {"name": "StatefulPartitionedCall/mobilebert/encoder/layer_._1/intermediate/dense/Tensordot/GatherV2_1/axis", "op": "Const", "attr": {"value": {"tensor": {"dtype": "DT_INT32", "tensorShape": {}}}, "dtype": {"type": "DT_INT32"}}}, {"name": "StatefulPartitionedCall/mobilebert/encoder/layer_._1/intermediate/dense/Tensordot/Const_1", "op": "Const", "attr": {"dtype": {"type": "DT_INT32"}, "value": {"tensor": {"dtype": "DT_INT32", "tensorShape": {"dim": [{"size": "1"}]}}}}}, {"name": "unknown_88", "op": "Const", "attr": {"dtype": {"type": "DT_FLOAT"}, "value": {"tensor": {"dtype": "DT_FLOAT", "tensorShape": {"dim": [{"size": "128"}, {"size": "1024"}]}}}}}, {"name": "StatefulPartitionedCall/mobilebert/encoder/layer_._1/intermediate/dense/Tensordot/free", "op": "Const", "attr": {"dtype": {"type": "DT_INT32"}, "value": {"tensor": {"dtype": "DT_INT32", "tensorShape": {"dim": [{"size": "2"}]}}}}}, {"name": "StatefulPartitionedCall/mobilebert/encoder/layer_._1/intermediate/dense/Tensordot/GatherV2/axis", "op": "Const", "attr": {"value": {"tensor": {"dtype": "DT_INT32", "tensorShape": {}}}, "dtype": {"type": "DT_INT32"}}}, {"name": "StatefulPartitionedCall/mobilebert/encoder/layer_._1/intermediate/dense/Tensordot/Const_2", "op": "Const", "attr": {"dtype": {"type": "DT_INT32"}, "value": {"tensor": {"dtype": "DT_INT32", "tensorShape": {"dim": [{"size": "1"}]}}}}}, {"name": "StatefulPartitionedCall/mobilebert/encoder/layer_._1/intermediate/dense/Tensordot/concat_1/axis", "op": "Const", "attr": {"value": {"tensor": {"dtype": "DT_INT32", "tensorShape": {}}}, "dtype": {"type": "DT_INT32"}}}, {"name": "unknown_89", "op": "Const", "attr": {"value": {"tensor": {"dtype": "DT_FLOAT", "tensorShape": {"dim": [{"size": "1024"}]}}}, "dtype": {"type": "DT_FLOAT"}}}, {"name": "ConstantFolding/StatefulPartitionedCall/mobilebert/encoder/layer_._1/intermediate/activation/truediv_recip", "op": "Const", "attr": {"dtype": {"type": "DT_FLOAT"}, "value": {"tensor": {"dtype": "DT_FLOAT", "tensorShape": {}}}}}, {"name": "StatefulPartitionedCall/mobilebert/encoder/layer_._1/output/dense/Tensordot/free", "op": "Const", "attr": {"value": {"tensor": {"dtype": "DT_INT32", "tensorShape": {"dim": [{"size": "2"}]}}}, "dtype": {"type": "DT_INT32"}}}, {"name": "StatefulPartitionedCall/mobilebert/encoder/layer_._1/output/dense/Tensordot/GatherV2/axis", "op": "Const", "attr": {"dtype": {"type": "DT_INT32"}, "value": {"tensor": {"dtype": "DT_INT32", "tensorShape": {}}}}}, {"name": "StatefulPartitionedCall/mobilebert/encoder/layer_._1/output/dense/Tensordot/Const_2", "op": "Const", "attr": {"dtype": {"type": "DT_INT32"}, "value": {"tensor": {"dtype": "DT_INT32", "tensorShape": {"dim": [{"size": "1"}]}}}}}, {"name": "StatefulPartitionedCall/mobilebert/encoder/layer_._1/output/dense/Tensordot/concat_1/axis", "op": "Const", "attr": {"dtype": {"type": "DT_INT32"}, "value": {"tensor": {"dtype": "DT_INT32", "tensorShape": {}}}}}, {"name": "unknown_91", "op": "Const", "attr": {"dtype": {"type": "DT_FLOAT"}, "value": {"tensor": {"dtype": "DT_FLOAT", "tensorShape": {"dim": [{"size": "128"}]}}}}}, {"name": "StatefulPartitionedCall/mobilebert/encoder/layer_._1/ffn.2/output/dense/Tensordot/Const", "op": "Const", "attr": {"value": {"tensor": {"dtype": "DT_INT32", "tensorShape": {"dim": [{"size": "1"}]}}}, "dtype": {"type": "DT_INT32"}}}, {"name": "StatefulPartitionedCall/mobilebert/encoder/layer_._1/ffn.2/output/dense/Tensordot/axes", "op": "Const", "attr": {"dtype": {"type": "DT_INT32"}, "value": {"tensor": {"dtype": "DT_INT32", "tensorShape": {"dim": [{"size": "1"}]}}}}}, {"name": "StatefulPartitionedCall/mobilebert/encoder/layer_._1/ffn.2/output/dense/Tensordot/GatherV2_1/axis", "op": "Const", "attr": {"dtype": {"type": "DT_INT32"}, "value": {"tensor": {"dtype": "DT_INT32", "tensorShape": {}}}}}, {"name": "StatefulPartitionedCall/mobilebert/encoder/layer_._1/ffn.2/output/dense/Tensordot/Const_1", "op": "Const", "attr": {"value": {"tensor": {"dtype": "DT_INT32", "tensorShape": {"dim": [{"size": "1"}]}}}, "dtype": {"type": "DT_INT32"}}}, {"name": "unknown_84", "op": "Const", "attr": {"value": {"tensor": {"dtype": "DT_FLOAT", "tensorShape": {"dim": [{"size": "1024"}, {"size": "128"}]}}}, "dtype": {"type": "DT_FLOAT"}}}, {"name": "StatefulPartitionedCall/mobilebert/encoder/layer_._1/ffn.2/intermediate/activation/mul/x", "op": "Const", "attr": {"value": {"tensor": {"dtype": "DT_FLOAT", "tensorShape": {}}}, "dtype": {"type": "DT_FLOAT"}}}, {"name": "StatefulPartitionedCall/mobilebert/encoder/layer_._1/ffn.2/intermediate/activation/add/x", "op": "Const", "attr": {"dtype": {"type": "DT_FLOAT"}, "value": {"tensor": {"dtype": "DT_FLOAT", "tensorShape": {}}}}}, {"name": "StatefulPartitionedCall/mobilebert/encoder/layer_._1/ffn.2/intermediate/dense/Tensordot/Const", "op": "Const", "attr": {"value": {"tensor": {"dtype": "DT_INT32", "tensorShape": {"dim": [{"size": "1"}]}}}, "dtype": {"type": "DT_INT32"}}}, {"name": "StatefulPartitionedCall/mobilebert/encoder/layer_._1/ffn.2/intermediate/dense/Tensordot/axes", "op": "Const", "attr": {"value": {"tensor": {"dtype": "DT_INT32", "tensorShape": {"dim": [{"size": "1"}]}}}, "dtype": {"type": "DT_INT32"}}}, {"name": "StatefulPartitionedCall/mobilebert/encoder/layer_._1/ffn.2/intermediate/dense/Tensordot/GatherV2_1/axis", "op": "Const", "attr": {"value": {"tensor": {"dtype": "DT_INT32", "tensorShape": {}}}, "dtype": {"type": "DT_INT32"}}}, {"name": "StatefulPartitionedCall/mobilebert/encoder/layer_._1/ffn.2/intermediate/dense/Tensordot/Const_1", "op": "Const", "attr": {"dtype": {"type": "DT_INT32"}, "value": {"tensor": {"dtype": "DT_INT32", "tensorShape": {"dim": [{"size": "1"}]}}}}}, {"name": "unknown_82", "op": "Const", "attr": {"value": {"tensor": {"dtype": "DT_FLOAT", "tensorShape": {"dim": [{"size": "128"}, {"size": "1024"}]}}}, "dtype": {"type": "DT_FLOAT"}}}, {"name": "StatefulPartitionedCall/mobilebert/encoder/layer_._1/ffn.2/intermediate/dense/Tensordot/free", "op": "Const", "attr": {"dtype": {"type": "DT_INT32"}, "value": {"tensor": {"dtype": "DT_INT32", "tensorShape": {"dim": [{"size": "2"}]}}}}}, {"name": "StatefulPartitionedCall/mobilebert/encoder/layer_._1/ffn.2/intermediate/dense/Tensordot/GatherV2/axis", "op": "Const", "attr": {"value": {"tensor": {"dtype": "DT_INT32", "tensorShape": {}}}, "dtype": {"type": "DT_INT32"}}}, {"name": "StatefulPartitionedCall/mobilebert/encoder/layer_._1/ffn.2/intermediate/dense/Tensordot/Const_2", "op": "Const", "attr": {"dtype": {"type": "DT_INT32"}, "value": {"tensor": {"dtype": "DT_INT32", "tensorShape": {"dim": [{"size": "1"}]}}}}}, {"name": "StatefulPartitionedCall/mobilebert/encoder/layer_._1/ffn.2/intermediate/dense/Tensordot/concat_1/axis", "op": "Const", "attr": {"value": {"tensor": {"dtype": "DT_INT32", "tensorShape": {}}}, "dtype": {"type": "DT_INT32"}}}, {"name": "unknown_83", "op": "Const", "attr": {"value": {"tensor": {"dtype": "DT_FLOAT", "tensorShape": {"dim": [{"size": "1024"}]}}}, "dtype": {"type": "DT_FLOAT"}}}, {"name": "ConstantFolding/StatefulPartitionedCall/mobilebert/encoder/layer_._1/ffn.2/intermediate/activation/truediv_recip", "op": "Const", "attr": {"dtype": {"type": "DT_FLOAT"}, "value": {"tensor": {"dtype": "DT_FLOAT", "tensorShape": {}}}}}, {"name": "StatefulPartitionedCall/mobilebert/encoder/layer_._1/ffn.2/output/dense/Tensordot/free", "op": "Const", "attr": {"dtype": {"type": "DT_INT32"}, "value": {"tensor": {"dtype": "DT_INT32", "tensorShape": {"dim": [{"size": "2"}]}}}}}, {"name": "StatefulPartitionedCall/mobilebert/encoder/layer_._1/ffn.2/output/dense/Tensordot/GatherV2/axis", "op": "Const", "attr": {"dtype": {"type": "DT_INT32"}, "value": {"tensor": {"dtype": "DT_INT32", "tensorShape": {}}}}}, {"name": "StatefulPartitionedCall/mobilebert/encoder/layer_._1/ffn.2/output/dense/Tensordot/Const_2", "op": "Const", "attr": {"value": {"tensor": {"dtype": "DT_INT32", "tensorShape": {"dim": [{"size": "1"}]}}}, "dtype": {"type": "DT_INT32"}}}, {"name": "StatefulPartitionedCall/mobilebert/encoder/layer_._1/ffn.2/output/dense/Tensordot/concat_1/axis", "op": "Const", "attr": {"value": {"tensor": {"dtype": "DT_INT32", "tensorShape": {}}}, "dtype": {"type": "DT_INT32"}}}, {"name": "unknown_85", "op": "Const", "attr": {"value": {"tensor": {"dtype": "DT_FLOAT", "tensorShape": {"dim": [{"size": "128"}]}}}, "dtype": {"type": "DT_FLOAT"}}}, {"name": "StatefulPartitionedCall/mobilebert/encoder/layer_._1/ffn.1/output/dense/Tensordot/Const", "op": "Const", "attr": {"value": {"tensor": {"dtype": "DT_INT32", "tensorShape": {"dim": [{"size": "1"}]}}}, "dtype": {"type": "DT_INT32"}}}, {"name": "StatefulPartitionedCall/mobilebert/encoder/layer_._1/ffn.1/output/dense/Tensordot/axes", "op": "Const", "attr": {"dtype": {"type": "DT_INT32"}, "value": {"tensor": {"dtype": "DT_INT32", "tensorShape": {"dim": [{"size": "1"}]}}}}}, {"name": "StatefulPartitionedCall/mobilebert/encoder/layer_._1/ffn.1/output/dense/Tensordot/GatherV2_1/axis", "op": "Const", "attr": {"dtype": {"type": "DT_INT32"}, "value": {"tensor": {"dtype": "DT_INT32", "tensorShape": {}}}}}, {"name": "StatefulPartitionedCall/mobilebert/encoder/layer_._1/ffn.1/output/dense/Tensordot/Const_1", "op": "Const", "attr": {"dtype": {"type": "DT_INT32"}, "value": {"tensor": {"dtype": "DT_INT32", "tensorShape": {"dim": [{"size": "1"}]}}}}}, {"name": "unknown_78", "op": "Const", "attr": {"value": {"tensor": {"dtype": "DT_FLOAT", "tensorShape": {"dim": [{"size": "1024"}, {"size": "128"}]}}}, "dtype": {"type": "DT_FLOAT"}}}, {"name": "StatefulPartitionedCall/mobilebert/encoder/layer_._1/ffn.1/intermediate/activation/mul/x", "op": "Const", "attr": {"dtype": {"type": "DT_FLOAT"}, "value": {"tensor": {"dtype": "DT_FLOAT", "tensorShape": {}}}}}, {"name": "StatefulPartitionedCall/mobilebert/encoder/layer_._1/ffn.1/intermediate/activation/add/x", "op": "Const", "attr": {"dtype": {"type": "DT_FLOAT"}, "value": {"tensor": {"dtype": "DT_FLOAT", "tensorShape": {}}}}}, {"name": "StatefulPartitionedCall/mobilebert/encoder/layer_._1/ffn.1/intermediate/dense/Tensordot/Const", "op": "Const", "attr": {"dtype": {"type": "DT_INT32"}, "value": {"tensor": {"dtype": "DT_INT32", "tensorShape": {"dim": [{"size": "1"}]}}}}}, {"name": "StatefulPartitionedCall/mobilebert/encoder/layer_._1/ffn.1/intermediate/dense/Tensordot/axes", "op": "Const", "attr": {"dtype": {"type": "DT_INT32"}, "value": {"tensor": {"dtype": "DT_INT32", "tensorShape": {"dim": [{"size": "1"}]}}}}}, {"name": "StatefulPartitionedCall/mobilebert/encoder/layer_._1/ffn.1/intermediate/dense/Tensordot/GatherV2_1/axis", "op": "Const", "attr": {"dtype": {"type": "DT_INT32"}, "value": {"tensor": {"dtype": "DT_INT32", "tensorShape": {}}}}}, {"name": "StatefulPartitionedCall/mobilebert/encoder/layer_._1/ffn.1/intermediate/dense/Tensordot/Const_1", "op": "Const", "attr": {"value": {"tensor": {"dtype": "DT_INT32", "tensorShape": {"dim": [{"size": "1"}]}}}, "dtype": {"type": "DT_INT32"}}}, {"name": "unknown_76", "op": "Const", "attr": {"dtype": {"type": "DT_FLOAT"}, "value": {"tensor": {"dtype": "DT_FLOAT", "tensorShape": {"dim": [{"size": "128"}, {"size": "1024"}]}}}}}, {"name": "StatefulPartitionedCall/mobilebert/encoder/layer_._1/ffn.1/intermediate/dense/Tensordot/free", "op": "Const", "attr": {"dtype": {"type": "DT_INT32"}, "value": {"tensor": {"dtype": "DT_INT32", "tensorShape": {"dim": [{"size": "2"}]}}}}}, {"name": "StatefulPartitionedCall/mobilebert/encoder/layer_._1/ffn.1/intermediate/dense/Tensordot/GatherV2/axis", "op": "Const", "attr": {"dtype": {"type": "DT_INT32"}, "value": {"tensor": {"dtype": "DT_INT32", "tensorShape": {}}}}}, {"name": "StatefulPartitionedCall/mobilebert/encoder/layer_._1/ffn.1/intermediate/dense/Tensordot/Const_2", "op": "Const", "attr": {"value": {"tensor": {"dtype": "DT_INT32", "tensorShape": {"dim": [{"size": "1"}]}}}, "dtype": {"type": "DT_INT32"}}}, {"name": "StatefulPartitionedCall/mobilebert/encoder/layer_._1/ffn.1/intermediate/dense/Tensordot/concat_1/axis", "op": "Const", "attr": {"dtype": {"type": "DT_INT32"}, "value": {"tensor": {"dtype": "DT_INT32", "tensorShape": {}}}}}, {"name": "unknown_77", "op": "Const", "attr": {"dtype": {"type": "DT_FLOAT"}, "value": {"tensor": {"dtype": "DT_FLOAT", "tensorShape": {"dim": [{"size": "1024"}]}}}}}, {"name": "ConstantFolding/StatefulPartitionedCall/mobilebert/encoder/layer_._1/ffn.1/intermediate/activation/truediv_recip", "op": "Const", "attr": {"dtype": {"type": "DT_FLOAT"}, "value": {"tensor": {"dtype": "DT_FLOAT", "tensorShape": {}}}}}, {"name": "StatefulPartitionedCall/mobilebert/encoder/layer_._1/ffn.1/output/dense/Tensordot/free", "op": "Const", "attr": {"value": {"tensor": {"dtype": "DT_INT32", "tensorShape": {"dim": [{"size": "2"}]}}}, "dtype": {"type": "DT_INT32"}}}, {"name": "StatefulPartitionedCall/mobilebert/encoder/layer_._1/ffn.1/output/dense/Tensordot/GatherV2/axis", "op": "Const", "attr": {"dtype": {"type": "DT_INT32"}, "value": {"tensor": {"dtype": "DT_INT32", "tensorShape": {}}}}}, {"name": "StatefulPartitionedCall/mobilebert/encoder/layer_._1/ffn.1/output/dense/Tensordot/Const_2", "op": "Const", "attr": {"dtype": {"type": "DT_INT32"}, "value": {"tensor": {"dtype": "DT_INT32", "tensorShape": {"dim": [{"size": "1"}]}}}}}, {"name": "StatefulPartitionedCall/mobilebert/encoder/layer_._1/ffn.1/output/dense/Tensordot/concat_1/axis", "op": "Const", "attr": {"dtype": {"type": "DT_INT32"}, "value": {"tensor": {"dtype": "DT_INT32", "tensorShape": {}}}}}, {"name": "unknown_79", "op": "Const", "attr": {"value": {"tensor": {"dtype": "DT_FLOAT", "tensorShape": {"dim": [{"size": "128"}]}}}, "dtype": {"type": "DT_FLOAT"}}}, {"name": "StatefulPartitionedCall/mobilebert/encoder/layer_._1/ffn.0/output/dense/Tensordot/Const", "op": "Const", "attr": {"value": {"tensor": {"dtype": "DT_INT32", "tensorShape": {"dim": [{"size": "1"}]}}}, "dtype": {"type": "DT_INT32"}}}, {"name": "StatefulPartitionedCall/mobilebert/encoder/layer_._1/ffn.0/output/dense/Tensordot/axes", "op": "Const", "attr": {"value": {"tensor": {"dtype": "DT_INT32", "tensorShape": {"dim": [{"size": "1"}]}}}, "dtype": {"type": "DT_INT32"}}}, {"name": "StatefulPartitionedCall/mobilebert/encoder/layer_._1/ffn.0/output/dense/Tensordot/GatherV2_1/axis", "op": "Const", "attr": {"value": {"tensor": {"dtype": "DT_INT32", "tensorShape": {}}}, "dtype": {"type": "DT_INT32"}}}, {"name": "StatefulPartitionedCall/mobilebert/encoder/layer_._1/ffn.0/output/dense/Tensordot/Const_1", "op": "Const", "attr": {"dtype": {"type": "DT_INT32"}, "value": {"tensor": {"dtype": "DT_INT32", "tensorShape": {"dim": [{"size": "1"}]}}}}}, {"name": "unknown_72", "op": "Const", "attr": {"dtype": {"type": "DT_FLOAT"}, "value": {"tensor": {"dtype": "DT_FLOAT", "tensorShape": {"dim": [{"size": "1024"}, {"size": "128"}]}}}}}, {"name": "StatefulPartitionedCall/mobilebert/encoder/layer_._1/ffn.0/intermediate/activation/mul/x", "op": "Const", "attr": {"dtype": {"type": "DT_FLOAT"}, "value": {"tensor": {"dtype": "DT_FLOAT", "tensorShape": {}}}}}, {"name": "StatefulPartitionedCall/mobilebert/encoder/layer_._1/ffn.0/intermediate/activation/add/x", "op": "Const", "attr": {"dtype": {"type": "DT_FLOAT"}, "value": {"tensor": {"dtype": "DT_FLOAT", "tensorShape": {}}}}}, {"name": "StatefulPartitionedCall/mobilebert/encoder/layer_._1/ffn.0/intermediate/dense/Tensordot/Const", "op": "Const", "attr": {"dtype": {"type": "DT_INT32"}, "value": {"tensor": {"dtype": "DT_INT32", "tensorShape": {"dim": [{"size": "1"}]}}}}}, {"name": "StatefulPartitionedCall/mobilebert/encoder/layer_._1/ffn.0/intermediate/dense/Tensordot/axes", "op": "Const", "attr": {"dtype": {"type": "DT_INT32"}, "value": {"tensor": {"dtype": "DT_INT32", "tensorShape": {"dim": [{"size": "1"}]}}}}}, {"name": "StatefulPartitionedCall/mobilebert/encoder/layer_._1/ffn.0/intermediate/dense/Tensordot/GatherV2_1/axis", "op": "Const", "attr": {"value": {"tensor": {"dtype": "DT_INT32", "tensorShape": {}}}, "dtype": {"type": "DT_INT32"}}}, {"name": "StatefulPartitionedCall/mobilebert/encoder/layer_._1/ffn.0/intermediate/dense/Tensordot/Const_1", "op": "Const", "attr": {"dtype": {"type": "DT_INT32"}, "value": {"tensor": {"dtype": "DT_INT32", "tensorShape": {"dim": [{"size": "1"}]}}}}}, {"name": "unknown_70", "op": "Const", "attr": {"value": {"tensor": {"dtype": "DT_FLOAT", "tensorShape": {"dim": [{"size": "128"}, {"size": "1024"}]}}}, "dtype": {"type": "DT_FLOAT"}}}, {"name": "StatefulPartitionedCall/mobilebert/encoder/layer_._1/ffn.0/intermediate/dense/Tensordot/free", "op": "Const", "attr": {"value": {"tensor": {"dtype": "DT_INT32", "tensorShape": {"dim": [{"size": "2"}]}}}, "dtype": {"type": "DT_INT32"}}}, {"name": "StatefulPartitionedCall/mobilebert/encoder/layer_._1/ffn.0/intermediate/dense/Tensordot/GatherV2/axis", "op": "Const", "attr": {"value": {"tensor": {"dtype": "DT_INT32", "tensorShape": {}}}, "dtype": {"type": "DT_INT32"}}}, {"name": "StatefulPartitionedCall/mobilebert/encoder/layer_._1/ffn.0/intermediate/dense/Tensordot/Const_2", "op": "Const", "attr": {"dtype": {"type": "DT_INT32"}, "value": {"tensor": {"dtype": "DT_INT32", "tensorShape": {"dim": [{"size": "1"}]}}}}}, {"name": "StatefulPartitionedCall/mobilebert/encoder/layer_._1/ffn.0/intermediate/dense/Tensordot/concat_1/axis", "op": "Const", "attr": {"dtype": {"type": "DT_INT32"}, "value": {"tensor": {"dtype": "DT_INT32", "tensorShape": {}}}}}, {"name": "unknown_71", "op": "Const", "attr": {"value": {"tensor": {"dtype": "DT_FLOAT", "tensorShape": {"dim": [{"size": "1024"}]}}}, "dtype": {"type": "DT_FLOAT"}}}, {"name": "ConstantFolding/StatefulPartitionedCall/mobilebert/encoder/layer_._1/ffn.0/intermediate/activation/truediv_recip", "op": "Const", "attr": {"dtype": {"type": "DT_FLOAT"}, "value": {"tensor": {"dtype": "DT_FLOAT", "tensorShape": {}}}}}, {"name": "StatefulPartitionedCall/mobilebert/encoder/layer_._1/ffn.0/output/dense/Tensordot/free", "op": "Const", "attr": {"value": {"tensor": {"dtype": "DT_INT32", "tensorShape": {"dim": [{"size": "2"}]}}}, "dtype": {"type": "DT_INT32"}}}, {"name": "StatefulPartitionedCall/mobilebert/encoder/layer_._1/ffn.0/output/dense/Tensordot/GatherV2/axis", "op": "Const", "attr": {"value": {"tensor": {"dtype": "DT_INT32", "tensorShape": {}}}, "dtype": {"type": "DT_INT32"}}}, {"name": "StatefulPartitionedCall/mobilebert/encoder/layer_._1/ffn.0/output/dense/Tensordot/Const_2", "op": "Const", "attr": {"value": {"tensor": {"dtype": "DT_INT32", "tensorShape": {"dim": [{"size": "1"}]}}}, "dtype": {"type": "DT_INT32"}}}, {"name": "StatefulPartitionedCall/mobilebert/encoder/layer_._1/ffn.0/output/dense/Tensordot/concat_1/axis", "op": "Const", "attr": {"value": {"tensor": {"dtype": "DT_INT32", "tensorShape": {}}}, "dtype": {"type": "DT_INT32"}}}, {"name": "unknown_73", "op": "Const", "attr": {"dtype": {"type": "DT_FLOAT"}, "value": {"tensor": {"dtype": "DT_FLOAT", "tensorShape": {"dim": [{"size": "128"}]}}}}}, {"name": "StatefulPartitionedCall/mobilebert/encoder/layer_._1/attention/output/dense/Tensordot/Const", "op": "Const", "attr": {"value": {"tensor": {"dtype": "DT_INT32", "tensorShape": {"dim": [{"size": "1"}]}}}, "dtype": {"type": "DT_INT32"}}}, {"name": "StatefulPartitionedCall/mobilebert/encoder/layer_._1/attention/output/dense/Tensordot/axes", "op": "Const", "attr": {"dtype": {"type": "DT_INT32"}, "value": {"tensor": {"dtype": "DT_INT32", "tensorShape": {"dim": [{"size": "1"}]}}}}}, {"name": "StatefulPartitionedCall/mobilebert/encoder/layer_._1/attention/output/dense/Tensordot/GatherV2_1/axis", "op": "Const", "attr": {"dtype": {"type": "DT_INT32"}, "value": {"tensor": {"dtype": "DT_INT32", "tensorShape": {}}}}}, {"name": "StatefulPartitionedCall/mobilebert/encoder/layer_._1/attention/output/dense/Tensordot/Const_1", "op": "Const", "attr": {"dtype": {"type": "DT_INT32"}, "value": {"tensor": {"dtype": "DT_INT32", "tensorShape": {"dim": [{"size": "1"}]}}}}}, {"name": "unknown_66", "op": "Const", "attr": {"value": {"tensor": {"dtype": "DT_FLOAT", "tensorShape": {"dim": [{"size": "128"}, {"size": "128"}]}}}, "dtype": {"type": "DT_FLOAT"}}}, {"name": "StatefulPartitionedCall/mobilebert/encoder/layer_._1/attention/self/query/Tensordot/Const", "op": "Const", "attr": {"dtype": {"type": "DT_INT32"}, "value": {"tensor": {"dtype": "DT_INT32", "tensorShape": {"dim": [{"size": "1"}]}}}}}, {"name": "StatefulPartitionedCall/mobilebert/encoder/layer_._1/attention/self/query/Tensordot/axes", "op": "Const", "attr": {"dtype": {"type": "DT_INT32"}, "value": {"tensor": {"dtype": "DT_INT32", "tensorShape": {"dim": [{"size": "1"}]}}}}}, {"name": "StatefulPartitionedCall/mobilebert/encoder/layer_._1/attention/self/query/Tensordot/GatherV2_1/axis", "op": "Const", "attr": {"value": {"tensor": {"dtype": "DT_INT32", "tensorShape": {}}}, "dtype": {"type": "DT_INT32"}}}, {"name": "StatefulPartitionedCall/mobilebert/encoder/layer_._1/attention/self/query/Tensordot/Const_1", "op": "Const", "attr": {"dtype": {"type": "DT_INT32"}, "value": {"tensor": {"dtype": "DT_INT32", "tensorShape": {"dim": [{"size": "1"}]}}}}}, {"name": "unknown_60", "op": "Const", "attr": {"dtype": {"type": "DT_FLOAT"}, "value": {"tensor": {"dtype": "DT_FLOAT", "tensorShape": {"dim": [{"size": "128"}, {"size": "128"}]}}}}}, {"name": "StatefulPartitionedCall/mobilebert/encoder/layer_._1/attention/self/query/Tensordot/free", "op": "Const", "attr": {"value": {"tensor": {"dtype": "DT_INT32", "tensorShape": {"dim": [{"size": "2"}]}}}, "dtype": {"type": "DT_INT32"}}}, {"name": "StatefulPartitionedCall/mobilebert/encoder/layer_._1/attention/self/query/Tensordot/GatherV2/axis", "op": "Const", "attr": {"value": {"tensor": {"dtype": "DT_INT32", "tensorShape": {}}}, "dtype": {"type": "DT_INT32"}}}, {"name": "StatefulPartitionedCall/mobilebert/encoder/layer_._1/attention/self/query/Tensordot/Const_2", "op": "Const", "attr": {"value": {"tensor": {"dtype": "DT_INT32", "tensorShape": {"dim": [{"size": "1"}]}}}, "dtype": {"type": "DT_INT32"}}}, {"name": "StatefulPartitionedCall/mobilebert/encoder/layer_._1/attention/self/query/Tensordot/concat_1/axis", "op": "Const", "attr": {"value": {"tensor": {"dtype": "DT_INT32", "tensorShape": {}}}, "dtype": {"type": "DT_INT32"}}}, {"name": "unknown_61", "op": "Const", "attr": {"value": {"tensor": {"dtype": "DT_FLOAT", "tensorShape": {"dim": [{"size": "128"}]}}}, "dtype": {"type": "DT_FLOAT"}}}, {"name": "StatefulPartitionedCall/mobilebert/encoder/layer_._1/attention/self/Reshape/shape", "op": "Const", "attr": {"dtype": {"type": "DT_INT32"}, "value": {"tensor": {"dtype": "DT_INT32", "tensorShape": {"dim": [{"size": "4"}]}}}}}, {"name": "StatefulPartitionedCall/mobilebert/encoder/layer_._1/attention/self/transpose/perm", "op": "Const", "attr": {"dtype": {"type": "DT_INT32"}, "value": {"tensor": {"dtype": "DT_INT32", "tensorShape": {"dim": [{"size": "4"}]}}}}}, {"name": "StatefulPartitionedCall/mobilebert/encoder/layer_._1/attention/self/key/Tensordot/Const", "op": "Const", "attr": {"dtype": {"type": "DT_INT32"}, "value": {"tensor": {"dtype": "DT_INT32", "tensorShape": {"dim": [{"size": "1"}]}}}}}, {"name": "StatefulPartitionedCall/mobilebert/encoder/layer_._1/attention/self/key/Tensordot/axes", "op": "Const", "attr": {"value": {"tensor": {"dtype": "DT_INT32", "tensorShape": {"dim": [{"size": "1"}]}}}, "dtype": {"type": "DT_INT32"}}}, {"name": "StatefulPartitionedCall/mobilebert/encoder/layer_._1/attention/self/key/Tensordot/GatherV2_1/axis", "op": "Const", "attr": {"value": {"tensor": {"dtype": "DT_INT32", "tensorShape": {}}}, "dtype": {"type": "DT_INT32"}}}, {"name": "StatefulPartitionedCall/mobilebert/encoder/layer_._1/attention/self/key/Tensordot/Const_1", "op": "Const", "attr": {"value": {"tensor": {"dtype": "DT_INT32", "tensorShape": {"dim": [{"size": "1"}]}}}, "dtype": {"type": "DT_INT32"}}}, {"name": "unknown_62", "op": "Const", "attr": {"value": {"tensor": {"dtype": "DT_FLOAT", "tensorShape": {"dim": [{"size": "128"}, {"size": "128"}]}}}, "dtype": {"type": "DT_FLOAT"}}}, {"name": "StatefulPartitionedCall/mobilebert/encoder/layer_._1/bottleneck/attention/dense/Tensordot/Const", "op": "Const", "attr": {"dtype": {"type": "DT_INT32"}, "value": {"tensor": {"dtype": "DT_INT32", "tensorShape": {"dim": [{"size": "1"}]}}}}}, {"name": "StatefulPartitionedCall/mobilebert/encoder/layer_._1/bottleneck/attention/dense/Tensordot/axes", "op": "Const", "attr": {"dtype": {"type": "DT_INT32"}, "value": {"tensor": {"dtype": "DT_INT32", "tensorShape": {"dim": [{"size": "1"}]}}}}}, {"name": "StatefulPartitionedCall/mobilebert/encoder/layer_._1/bottleneck/attention/dense/Tensordot/GatherV2_1/axis", "op": "Const", "attr": {"dtype": {"type": "DT_INT32"}, "value": {"tensor": {"dtype": "DT_INT32", "tensorShape": {}}}}}, {"name": "StatefulPartitionedCall/mobilebert/encoder/layer_._1/bottleneck/attention/dense/Tensordot/Const_1", "op": "Const", "attr": {"dtype": {"type": "DT_INT32"}, "value": {"tensor": {"dtype": "DT_INT32", "tensorShape": {"dim": [{"size": "1"}]}}}}}, {"name": "unknown_56", "op": "Const", "attr": {"dtype": {"type": "DT_FLOAT"}, "value": {"tensor": {"dtype": "DT_FLOAT", "tensorShape": {"dim": [{"size": "256"}, {"size": "128"}]}}}}}, {"name": "StatefulPartitionedCall/mobilebert/encoder/layer_._1/bottleneck/attention/dense/Tensordot/free", "op": "Const", "attr": {"dtype": {"type": "DT_INT32"}, "value": {"tensor": {"dtype": "DT_INT32", "tensorShape": {"dim": [{"size": "2"}]}}}}}, {"name": "StatefulPartitionedCall/mobilebert/encoder/layer_._1/bottleneck/attention/dense/Tensordot/GatherV2/axis", "op": "Const", "attr": {"value": {"tensor": {"dtype": "DT_INT32", "tensorShape": {}}}, "dtype": {"type": "DT_INT32"}}}, {"name": "StatefulPartitionedCall/mobilebert/encoder/layer_._1/bottleneck/attention/dense/Tensordot/Const_2", "op": "Const", "attr": {"dtype": {"type": "DT_INT32"}, "value": {"tensor": {"dtype": "DT_INT32", "tensorShape": {"dim": [{"size": "1"}]}}}}}, {"name": "StatefulPartitionedCall/mobilebert/encoder/layer_._1/bottleneck/attention/dense/Tensordot/concat_1/axis", "op": "Const", "attr": {"value": {"tensor": {"dtype": "DT_INT32", "tensorShape": {}}}, "dtype": {"type": "DT_INT32"}}}, {"name": "unknown_57", "op": "Const", "attr": {"dtype": {"type": "DT_FLOAT"}, "value": {"tensor": {"dtype": "DT_FLOAT", "tensorShape": {"dim": [{"size": "128"}]}}}}}, {"name": "unknown_58", "op": "Const", "attr": {"value": {"tensor": {"dtype": "DT_FLOAT", "tensorShape": {"dim": [{"size": "128"}]}}}, "dtype": {"type": "DT_FLOAT"}}}, {"name": "unknown_59", "op": "Const", "attr": {"dtype": {"type": "DT_FLOAT"}, "value": {"tensor": {"dtype": "DT_FLOAT", "tensorShape": {"dim": [{"size": "128"}]}}}}}, {"name": "StatefulPartitionedCall/mobilebert/encoder/layer_._1/attention/self/key/Tensordot/free", "op": "Const", "attr": {"dtype": {"type": "DT_INT32"}, "value": {"tensor": {"dtype": "DT_INT32", "tensorShape": {"dim": [{"size": "2"}]}}}}}, {"name": "StatefulPartitionedCall/mobilebert/encoder/layer_._1/attention/self/key/Tensordot/GatherV2/axis", "op": "Const", "attr": {"value": {"tensor": {"dtype": "DT_INT32", "tensorShape": {}}}, "dtype": {"type": "DT_INT32"}}}, {"name": "StatefulPartitionedCall/mobilebert/encoder/layer_._1/attention/self/key/Tensordot/Const_2", "op": "Const", "attr": {"value": {"tensor": {"dtype": "DT_INT32", "tensorShape": {"dim": [{"size": "1"}]}}}, "dtype": {"type": "DT_INT32"}}}, {"name": "StatefulPartitionedCall/mobilebert/encoder/layer_._1/attention/self/key/Tensordot/concat_1/axis", "op": "Const", "attr": {"dtype": {"type": "DT_INT32"}, "value": {"tensor": {"dtype": "DT_INT32", "tensorShape": {}}}}}, {"name": "unknown_63", "op": "Const", "attr": {"value": {"tensor": {"dtype": "DT_FLOAT", "tensorShape": {"dim": [{"size": "128"}]}}}, "dtype": {"type": "DT_FLOAT"}}}, {"name": "StatefulPartitionedCall/mobilebert/encoder/layer_._1/attention/self/Reshape_1/shape", "op": "Const", "attr": {"dtype": {"type": "DT_INT32"}, "value": {"tensor": {"dtype": "DT_INT32", "tensorShape": {"dim": [{"size": "4"}]}}}}}, {"name": "StatefulPartitionedCall/mobilebert/encoder/layer_._1/attention/self/transpose_1/perm", "op": "Const", "attr": {"value": {"tensor": {"dtype": "DT_INT32", "tensorShape": {"dim": [{"size": "4"}]}}}, "dtype": {"type": "DT_INT32"}}}, {"name": "ConstantFolding/StatefulPartitionedCall/mobilebert/encoder/layer_._1/attention/self/truediv_recip", "op": "Const", "attr": {"value": {"tensor": {"dtype": "DT_FLOAT", "tensorShape": {}}}, "dtype": {"type": "DT_FLOAT"}}}, {"name": "StatefulPartitionedCall/mobilebert/encoder/layer_._1/attention/self/value/Tensordot/Const", "op": "Const", "attr": {"value": {"tensor": {"dtype": "DT_INT32", "tensorShape": {"dim": [{"size": "1"}]}}}, "dtype": {"type": "DT_INT32"}}}, {"name": "StatefulPartitionedCall/mobilebert/encoder/layer_._1/attention/self/value/Tensordot/axes", "op": "Const", "attr": {"value": {"tensor": {"dtype": "DT_INT32", "tensorShape": {"dim": [{"size": "1"}]}}}, "dtype": {"type": "DT_INT32"}}}, {"name": "StatefulPartitionedCall/mobilebert/encoder/layer_._1/attention/self/value/Tensordot/GatherV2_1/axis", "op": "Const", "attr": {"value": {"tensor": {"dtype": "DT_INT32", "tensorShape": {}}}, "dtype": {"type": "DT_INT32"}}}, {"name": "StatefulPartitionedCall/mobilebert/encoder/layer_._1/attention/self/value/Tensordot/Const_1", "op": "Const", "attr": {"value": {"tensor": {"dtype": "DT_INT32", "tensorShape": {"dim": [{"size": "1"}]}}}, "dtype": {"type": "DT_INT32"}}}, {"name": "unknown_64", "op": "Const", "attr": {"dtype": {"type": "DT_FLOAT"}, "value": {"tensor": {"dtype": "DT_FLOAT", "tensorShape": {"dim": [{"size": "256"}, {"size": "128"}]}}}}}, {"name": "StatefulPartitionedCall/mobilebert/encoder/layer_._1/attention/self/value/Tensordot/free", "op": "Const", "attr": {"value": {"tensor": {"dtype": "DT_INT32", "tensorShape": {"dim": [{"size": "2"}]}}}, "dtype": {"type": "DT_INT32"}}}, {"name": "StatefulPartitionedCall/mobilebert/encoder/layer_._1/attention/self/value/Tensordot/GatherV2/axis", "op": "Const", "attr": {"value": {"tensor": {"dtype": "DT_INT32", "tensorShape": {}}}, "dtype": {"type": "DT_INT32"}}}, {"name": "StatefulPartitionedCall/mobilebert/encoder/layer_._1/attention/self/value/Tensordot/Const_2", "op": "Const", "attr": {"value": {"tensor": {"dtype": "DT_INT32", "tensorShape": {"dim": [{"size": "1"}]}}}, "dtype": {"type": "DT_INT32"}}}, {"name": "StatefulPartitionedCall/mobilebert/encoder/layer_._1/attention/self/value/Tensordot/concat_1/axis", "op": "Const", "attr": {"dtype": {"type": "DT_INT32"}, "value": {"tensor": {"dtype": "DT_INT32", "tensorShape": {}}}}}, {"name": "unknown_65", "op": "Const", "attr": {"value": {"tensor": {"dtype": "DT_FLOAT", "tensorShape": {"dim": [{"size": "128"}]}}}, "dtype": {"type": "DT_FLOAT"}}}, {"name": "StatefulPartitionedCall/mobilebert/encoder/layer_._1/attention/self/Reshape_2/shape", "op": "Const", "attr": {"dtype": {"type": "DT_INT32"}, "value": {"tensor": {"dtype": "DT_INT32", "tensorShape": {"dim": [{"size": "4"}]}}}}}, {"name": "StatefulPartitionedCall/mobilebert/encoder/layer_._1/attention/self/transpose_2/perm", "op": "Const", "attr": {"dtype": {"type": "DT_INT32"}, "value": {"tensor": {"dtype": "DT_INT32", "tensorShape": {"dim": [{"size": "4"}]}}}}}, {"name": "StatefulPartitionedCall/mobilebert/encoder/layer_._1/attention/self/transpose_3/perm", "op": "Const", "attr": {"dtype": {"type": "DT_INT32"}, "value": {"tensor": {"dtype": "DT_INT32", "tensorShape": {"dim": [{"size": "4"}]}}}}}, {"name": "StatefulPartitionedCall/mobilebert/encoder/layer_._1/attention/self/Reshape_3/shape", "op": "Const", "attr": {"value": {"tensor": {"dtype": "DT_INT32", "tensorShape": {"dim": [{"size": "3"}]}}}, "dtype": {"type": "DT_INT32"}}}, {"name": "StatefulPartitionedCall/mobilebert/encoder/layer_._1/attention/output/dense/Tensordot/free", "op": "Const", "attr": {"dtype": {"type": "DT_INT32"}, "value": {"tensor": {"dtype": "DT_INT32", "tensorShape": {"dim": [{"size": "2"}]}}}}}, {"name": "StatefulPartitionedCall/mobilebert/encoder/layer_._1/attention/output/dense/Tensordot/GatherV2/axis", "op": "Const", "attr": {"value": {"tensor": {"dtype": "DT_INT32", "tensorShape": {}}}, "dtype": {"type": "DT_INT32"}}}, {"name": "StatefulPartitionedCall/mobilebert/encoder/layer_._1/attention/output/dense/Tensordot/Const_2", "op": "Const", "attr": {"value": {"tensor": {"dtype": "DT_INT32", "tensorShape": {"dim": [{"size": "1"}]}}}, "dtype": {"type": "DT_INT32"}}}, {"name": "StatefulPartitionedCall/mobilebert/encoder/layer_._1/attention/output/dense/Tensordot/concat_1/axis", "op": "Const", "attr": {"value": {"tensor": {"dtype": "DT_INT32", "tensorShape": {}}}, "dtype": {"type": "DT_INT32"}}}, {"name": "unknown_67", "op": "Const", "attr": {"value": {"tensor": {"dtype": "DT_FLOAT", "tensorShape": {"dim": [{"size": "128"}]}}}, "dtype": {"type": "DT_FLOAT"}}}, {"name": "StatefulPartitionedCall/mobilebert/encoder/layer_._1/bottleneck/input/dense/Tensordot/Const", "op": "Const", "attr": {"value": {"tensor": {"dtype": "DT_INT32", "tensorShape": {"dim": [{"size": "1"}]}}}, "dtype": {"type": "DT_INT32"}}}, {"name": "StatefulPartitionedCall/mobilebert/encoder/layer_._1/bottleneck/input/dense/Tensordot/axes", "op": "Const", "attr": {"dtype": {"type": "DT_INT32"}, "value": {"tensor": {"dtype": "DT_INT32", "tensorShape": {"dim": [{"size": "1"}]}}}}}, {"name": "StatefulPartitionedCall/mobilebert/encoder/layer_._1/bottleneck/input/dense/Tensordot/GatherV2_1/axis", "op": "Const", "attr": {"dtype": {"type": "DT_INT32"}, "value": {"tensor": {"dtype": "DT_INT32", "tensorShape": {}}}}}, {"name": "StatefulPartitionedCall/mobilebert/encoder/layer_._1/bottleneck/input/dense/Tensordot/Const_1", "op": "Const", "attr": {"dtype": {"type": "DT_INT32"}, "value": {"tensor": {"dtype": "DT_INT32", "tensorShape": {"dim": [{"size": "1"}]}}}}}, {"name": "unknown_52", "op": "Const", "attr": {"dtype": {"type": "DT_FLOAT"}, "value": {"tensor": {"dtype": "DT_FLOAT", "tensorShape": {"dim": [{"size": "256"}, {"size": "128"}]}}}}}, {"name": "StatefulPartitionedCall/mobilebert/encoder/layer_._1/bottleneck/input/dense/Tensordot/free", "op": "Const", "attr": {"dtype": {"type": "DT_INT32"}, "value": {"tensor": {"dtype": "DT_INT32", "tensorShape": {"dim": [{"size": "2"}]}}}}}, {"name": "StatefulPartitionedCall/mobilebert/encoder/layer_._1/bottleneck/input/dense/Tensordot/GatherV2/axis", "op": "Const", "attr": {"value": {"tensor": {"dtype": "DT_INT32", "tensorShape": {}}}, "dtype": {"type": "DT_INT32"}}}, {"name": "StatefulPartitionedCall/mobilebert/encoder/layer_._1/bottleneck/input/dense/Tensordot/Const_2", "op": "Const", "attr": {"dtype": {"type": "DT_INT32"}, "value": {"tensor": {"dtype": "DT_INT32", "tensorShape": {"dim": [{"size": "1"}]}}}}}, {"name": "StatefulPartitionedCall/mobilebert/encoder/layer_._1/bottleneck/input/dense/Tensordot/concat_1/axis", "op": "Const", "attr": {"value": {"tensor": {"dtype": "DT_INT32", "tensorShape": {}}}, "dtype": {"type": "DT_INT32"}}}, {"name": "unknown_53", "op": "Const", "attr": {"dtype": {"type": "DT_FLOAT"}, "value": {"tensor": {"dtype": "DT_FLOAT", "tensorShape": {"dim": [{"size": "128"}]}}}}}, {"name": "unknown_54", "op": "Const", "attr": {"value": {"tensor": {"dtype": "DT_FLOAT", "tensorShape": {"dim": [{"size": "128"}]}}}, "dtype": {"type": "DT_FLOAT"}}}, {"name": "unknown_55", "op": "Const", "attr": {"dtype": {"type": "DT_FLOAT"}, "value": {"tensor": {"dtype": "DT_FLOAT", "tensorShape": {"dim": [{"size": "128"}]}}}}}, {"name": "unknown_68", "op": "Const", "attr": {"dtype": {"type": "DT_FLOAT"}, "value": {"tensor": {"dtype": "DT_FLOAT", "tensorShape": {"dim": [{"size": "128"}]}}}}}, {"name": "unknown_69", "op": "Const", "attr": {"dtype": {"type": "DT_FLOAT"}, "value": {"tensor": {"dtype": "DT_FLOAT", "tensorShape": {"dim": [{"size": "128"}]}}}}}, {"name": "unknown_74", "op": "Const", "attr": {"dtype": {"type": "DT_FLOAT"}, "value": {"tensor": {"dtype": "DT_FLOAT", "tensorShape": {"dim": [{"size": "128"}]}}}}}, {"name": "unknown_75", "op": "Const", "attr": {"value": {"tensor": {"dtype": "DT_FLOAT", "tensorShape": {"dim": [{"size": "128"}]}}}, "dtype": {"type": "DT_FLOAT"}}}, {"name": "unknown_80", "op": "Const", "attr": {"dtype": {"type": "DT_FLOAT"}, "value": {"tensor": {"dtype": "DT_FLOAT", "tensorShape": {"dim": [{"size": "128"}]}}}}}, {"name": "unknown_81", "op": "Const", "attr": {"dtype": {"type": "DT_FLOAT"}, "value": {"tensor": {"dtype": "DT_FLOAT", "tensorShape": {"dim": [{"size": "128"}]}}}}}, {"name": "unknown_86", "op": "Const", "attr": {"dtype": {"type": "DT_FLOAT"}, "value": {"tensor": {"dtype": "DT_FLOAT", "tensorShape": {"dim": [{"size": "128"}]}}}}}, {"name": "unknown_87", "op": "Const", "attr": {"dtype": {"type": "DT_FLOAT"}, "value": {"tensor": {"dtype": "DT_FLOAT", "tensorShape": {"dim": [{"size": "128"}]}}}}}, {"name": "unknown_92", "op": "Const", "attr": {"dtype": {"type": "DT_FLOAT"}, "value": {"tensor": {"dtype": "DT_FLOAT", "tensorShape": {"dim": [{"size": "128"}]}}}}}, {"name": "unknown_93", "op": "Const", "attr": {"value": {"tensor": {"dtype": "DT_FLOAT", "tensorShape": {"dim": [{"size": "128"}]}}}, "dtype": {"type": "DT_FLOAT"}}}, {"name": "StatefulPartitionedCall/mobilebert/encoder/layer_._1/output/bottleneck/dense/Tensordot/free", "op": "Const", "attr": {"value": {"tensor": {"dtype": "DT_INT32", "tensorShape": {"dim": [{"size": "2"}]}}}, "dtype": {"type": "DT_INT32"}}}, {"name": "StatefulPartitionedCall/mobilebert/encoder/layer_._1/output/bottleneck/dense/Tensordot/GatherV2/axis", "op": "Const", "attr": {"value": {"tensor": {"dtype": "DT_INT32", "tensorShape": {}}}, "dtype": {"type": "DT_INT32"}}}, {"name": "StatefulPartitionedCall/mobilebert/encoder/layer_._1/output/bottleneck/dense/Tensordot/Const_2", "op": "Const", "attr": {"dtype": {"type": "DT_INT32"}, "value": {"tensor": {"dtype": "DT_INT32", "tensorShape": {"dim": [{"size": "1"}]}}}}}, {"name": "StatefulPartitionedCall/mobilebert/encoder/layer_._1/output/bottleneck/dense/Tensordot/concat_1/axis", "op": "Const", "attr": {"dtype": {"type": "DT_INT32"}, "value": {"tensor": {"dtype": "DT_INT32", "tensorShape": {}}}}}, {"name": "unknown_95", "op": "Const", "attr": {"value": {"tensor": {"dtype": "DT_FLOAT", "tensorShape": {"dim": [{"size": "256"}]}}}, "dtype": {"type": "DT_FLOAT"}}}, {"name": "StatefulPartitionedCall/mobilebert/encoder/layer_._0/output/bottleneck/dense/Tensordot/Const", "op": "Const", "attr": {"value": {"tensor": {"dtype": "DT_INT32", "tensorShape": {"dim": [{"size": "1"}]}}}, "dtype": {"type": "DT_INT32"}}}, {"name": "StatefulPartitionedCall/mobilebert/encoder/layer_._0/output/bottleneck/dense/Tensordot/axes", "op": "Const", "attr": {"value": {"tensor": {"dtype": "DT_INT32", "tensorShape": {"dim": [{"size": "1"}]}}}, "dtype": {"type": "DT_INT32"}}}, {"name": "StatefulPartitionedCall/mobilebert/encoder/layer_._0/output/bottleneck/dense/Tensordot/GatherV2_1/axis", "op": "Const", "attr": {"value": {"tensor": {"dtype": "DT_INT32", "tensorShape": {}}}, "dtype": {"type": "DT_INT32"}}}, {"name": "StatefulPartitionedCall/mobilebert/encoder/layer_._0/output/bottleneck/dense/Tensordot/Const_1", "op": "Const", "attr": {"value": {"tensor": {"dtype": "DT_INT32", "tensorShape": {"dim": [{"size": "1"}]}}}, "dtype": {"type": "DT_INT32"}}}, {"name": "unknown_48", "op": "Const", "attr": {"value": {"tensor": {"dtype": "DT_FLOAT", "tensorShape": {"dim": [{"size": "128"}, {"size": "256"}]}}}, "dtype": {"type": "DT_FLOAT"}}}, {"name": "StatefulPartitionedCall/mobilebert/encoder/layer_._0/output/dense/Tensordot/Const", "op": "Const", "attr": {"dtype": {"type": "DT_INT32"}, "value": {"tensor": {"dtype": "DT_INT32", "tensorShape": {"dim": [{"size": "1"}]}}}}}, {"name": "StatefulPartitionedCall/mobilebert/encoder/layer_._0/output/dense/Tensordot/axes", "op": "Const", "attr": {"dtype": {"type": "DT_INT32"}, "value": {"tensor": {"dtype": "DT_INT32", "tensorShape": {"dim": [{"size": "1"}]}}}}}, {"name": "StatefulPartitionedCall/mobilebert/encoder/layer_._0/output/dense/Tensordot/GatherV2_1/axis", "op": "Const", "attr": {"dtype": {"type": "DT_INT32"}, "value": {"tensor": {"dtype": "DT_INT32", "tensorShape": {}}}}}, {"name": "StatefulPartitionedCall/mobilebert/encoder/layer_._0/output/dense/Tensordot/Const_1", "op": "Const", "attr": {"value": {"tensor": {"dtype": "DT_INT32", "tensorShape": {"dim": [{"size": "1"}]}}}, "dtype": {"type": "DT_INT32"}}}, {"name": "unknown_44", "op": "Const", "attr": {"dtype": {"type": "DT_FLOAT"}, "value": {"tensor": {"dtype": "DT_FLOAT", "tensorShape": {"dim": [{"size": "1024"}, {"size": "128"}]}}}}}, {"name": "StatefulPartitionedCall/mobilebert/encoder/layer_._0/intermediate/activation/mul/x", "op": "Const", "attr": {"value": {"tensor": {"dtype": "DT_FLOAT", "tensorShape": {}}}, "dtype": {"type": "DT_FLOAT"}}}, {"name": "StatefulPartitionedCall/mobilebert/encoder/layer_._0/intermediate/activation/add/x", "op": "Const", "attr": {"value": {"tensor": {"dtype": "DT_FLOAT", "tensorShape": {}}}, "dtype": {"type": "DT_FLOAT"}}}, {"name": "StatefulPartitionedCall/mobilebert/encoder/layer_._0/intermediate/dense/Tensordot/Const", "op": "Const", "attr": {"dtype": {"type": "DT_INT32"}, "value": {"tensor": {"dtype": "DT_INT32", "tensorShape": {"dim": [{"size": "1"}]}}}}}, {"name": "StatefulPartitionedCall/mobilebert/encoder/layer_._0/intermediate/dense/Tensordot/axes", "op": "Const", "attr": {"dtype": {"type": "DT_INT32"}, "value": {"tensor": {"dtype": "DT_INT32", "tensorShape": {"dim": [{"size": "1"}]}}}}}, {"name": "StatefulPartitionedCall/mobilebert/encoder/layer_._0/intermediate/dense/Tensordot/GatherV2_1/axis", "op": "Const", "attr": {"value": {"tensor": {"dtype": "DT_INT32", "tensorShape": {}}}, "dtype": {"type": "DT_INT32"}}}, {"name": "StatefulPartitionedCall/mobilebert/encoder/layer_._0/intermediate/dense/Tensordot/Const_1", "op": "Const", "attr": {"value": {"tensor": {"dtype": "DT_INT32", "tensorShape": {"dim": [{"size": "1"}]}}}, "dtype": {"type": "DT_INT32"}}}, {"name": "unknown_42", "op": "Const", "attr": {"dtype": {"type": "DT_FLOAT"}, "value": {"tensor": {"dtype": "DT_FLOAT", "tensorShape": {"dim": [{"size": "128"}, {"size": "1024"}]}}}}}, {"name": "StatefulPartitionedCall/mobilebert/encoder/layer_._0/intermediate/dense/Tensordot/free", "op": "Const", "attr": {"value": {"tensor": {"dtype": "DT_INT32", "tensorShape": {"dim": [{"size": "2"}]}}}, "dtype": {"type": "DT_INT32"}}}, {"name": "StatefulPartitionedCall/mobilebert/encoder/layer_._0/intermediate/dense/Tensordot/GatherV2/axis", "op": "Const", "attr": {"value": {"tensor": {"dtype": "DT_INT32", "tensorShape": {}}}, "dtype": {"type": "DT_INT32"}}}, {"name": "StatefulPartitionedCall/mobilebert/encoder/layer_._0/intermediate/dense/Tensordot/Const_2", "op": "Const", "attr": {"dtype": {"type": "DT_INT32"}, "value": {"tensor": {"dtype": "DT_INT32", "tensorShape": {"dim": [{"size": "1"}]}}}}}, {"name": "StatefulPartitionedCall/mobilebert/encoder/layer_._0/intermediate/dense/Tensordot/concat_1/axis", "op": "Const", "attr": {"value": {"tensor": {"dtype": "DT_INT32", "tensorShape": {}}}, "dtype": {"type": "DT_INT32"}}}, {"name": "unknown_43", "op": "Const", "attr": {"dtype": {"type": "DT_FLOAT"}, "value": {"tensor": {"dtype": "DT_FLOAT", "tensorShape": {"dim": [{"size": "1024"}]}}}}}, {"name": "ConstantFolding/StatefulPartitionedCall/mobilebert/encoder/layer_._0/intermediate/activation/truediv_recip", "op": "Const", "attr": {"value": {"tensor": {"dtype": "DT_FLOAT", "tensorShape": {}}}, "dtype": {"type": "DT_FLOAT"}}}, {"name": "StatefulPartitionedCall/mobilebert/encoder/layer_._0/output/dense/Tensordot/free", "op": "Const", "attr": {"value": {"tensor": {"dtype": "DT_INT32", "tensorShape": {"dim": [{"size": "2"}]}}}, "dtype": {"type": "DT_INT32"}}}, {"name": "StatefulPartitionedCall/mobilebert/encoder/layer_._0/output/dense/Tensordot/GatherV2/axis", "op": "Const", "attr": {"value": {"tensor": {"dtype": "DT_INT32", "tensorShape": {}}}, "dtype": {"type": "DT_INT32"}}}, {"name": "StatefulPartitionedCall/mobilebert/encoder/layer_._0/output/dense/Tensordot/Const_2", "op": "Const", "attr": {"value": {"tensor": {"dtype": "DT_INT32", "tensorShape": {"dim": [{"size": "1"}]}}}, "dtype": {"type": "DT_INT32"}}}, {"name": "StatefulPartitionedCall/mobilebert/encoder/layer_._0/output/dense/Tensordot/concat_1/axis", "op": "Const", "attr": {"value": {"tensor": {"dtype": "DT_INT32", "tensorShape": {}}}, "dtype": {"type": "DT_INT32"}}}, {"name": "unknown_45", "op": "Const", "attr": {"value": {"tensor": {"dtype": "DT_FLOAT", "tensorShape": {"dim": [{"size": "128"}]}}}, "dtype": {"type": "DT_FLOAT"}}}, {"name": "StatefulPartitionedCall/mobilebert/encoder/layer_._0/ffn.2/output/dense/Tensordot/Const", "op": "Const", "attr": {"dtype": {"type": "DT_INT32"}, "value": {"tensor": {"dtype": "DT_INT32", "tensorShape": {"dim": [{"size": "1"}]}}}}}, {"name": "StatefulPartitionedCall/mobilebert/encoder/layer_._0/ffn.2/output/dense/Tensordot/axes", "op": "Const", "attr": {"dtype": {"type": "DT_INT32"}, "value": {"tensor": {"dtype": "DT_INT32", "tensorShape": {"dim": [{"size": "1"}]}}}}}, {"name": "StatefulPartitionedCall/mobilebert/encoder/layer_._0/ffn.2/output/dense/Tensordot/GatherV2_1/axis", "op": "Const", "attr": {"value": {"tensor": {"dtype": "DT_INT32", "tensorShape": {}}}, "dtype": {"type": "DT_INT32"}}}, {"name": "StatefulPartitionedCall/mobilebert/encoder/layer_._0/ffn.2/output/dense/Tensordot/Const_1", "op": "Const", "attr": {"dtype": {"type": "DT_INT32"}, "value": {"tensor": {"dtype": "DT_INT32", "tensorShape": {"dim": [{"size": "1"}]}}}}}, {"name": "unknown_38", "op": "Const", "attr": {"value": {"tensor": {"dtype": "DT_FLOAT", "tensorShape": {"dim": [{"size": "1024"}, {"size": "128"}]}}}, "dtype": {"type": "DT_FLOAT"}}}, {"name": "StatefulPartitionedCall/mobilebert/encoder/layer_._0/ffn.2/intermediate/activation/mul/x", "op": "Const", "attr": {"value": {"tensor": {"dtype": "DT_FLOAT", "tensorShape": {}}}, "dtype": {"type": "DT_FLOAT"}}}, {"name": "StatefulPartitionedCall/mobilebert/encoder/layer_._0/ffn.2/intermediate/activation/add/x", "op": "Const", "attr": {"dtype": {"type": "DT_FLOAT"}, "value": {"tensor": {"dtype": "DT_FLOAT", "tensorShape": {}}}}}, {"name": "StatefulPartitionedCall/mobilebert/encoder/layer_._0/ffn.2/intermediate/dense/Tensordot/Const", "op": "Const", "attr": {"value": {"tensor": {"dtype": "DT_INT32", "tensorShape": {"dim": [{"size": "1"}]}}}, "dtype": {"type": "DT_INT32"}}}, {"name": "StatefulPartitionedCall/mobilebert/encoder/layer_._0/ffn.2/intermediate/dense/Tensordot/axes", "op": "Const", "attr": {"dtype": {"type": "DT_INT32"}, "value": {"tensor": {"dtype": "DT_INT32", "tensorShape": {"dim": [{"size": "1"}]}}}}}, {"name": "StatefulPartitionedCall/mobilebert/encoder/layer_._0/ffn.2/intermediate/dense/Tensordot/GatherV2_1/axis", "op": "Const", "attr": {"dtype": {"type": "DT_INT32"}, "value": {"tensor": {"dtype": "DT_INT32", "tensorShape": {}}}}}, {"name": "StatefulPartitionedCall/mobilebert/encoder/layer_._0/ffn.2/intermediate/dense/Tensordot/Const_1", "op": "Const", "attr": {"value": {"tensor": {"dtype": "DT_INT32", "tensorShape": {"dim": [{"size": "1"}]}}}, "dtype": {"type": "DT_INT32"}}}, {"name": "unknown_36", "op": "Const", "attr": {"dtype": {"type": "DT_FLOAT"}, "value": {"tensor": {"dtype": "DT_FLOAT", "tensorShape": {"dim": [{"size": "128"}, {"size": "1024"}]}}}}}, {"name": "StatefulPartitionedCall/mobilebert/encoder/layer_._0/ffn.2/intermediate/dense/Tensordot/free", "op": "Const", "attr": {"value": {"tensor": {"dtype": "DT_INT32", "tensorShape": {"dim": [{"size": "2"}]}}}, "dtype": {"type": "DT_INT32"}}}, {"name": "StatefulPartitionedCall/mobilebert/encoder/layer_._0/ffn.2/intermediate/dense/Tensordot/GatherV2/axis", "op": "Const", "attr": {"value": {"tensor": {"dtype": "DT_INT32", "tensorShape": {}}}, "dtype": {"type": "DT_INT32"}}}, {"name": "StatefulPartitionedCall/mobilebert/encoder/layer_._0/ffn.2/intermediate/dense/Tensordot/Const_2", "op": "Const", "attr": {"dtype": {"type": "DT_INT32"}, "value": {"tensor": {"dtype": "DT_INT32", "tensorShape": {"dim": [{"size": "1"}]}}}}}, {"name": "StatefulPartitionedCall/mobilebert/encoder/layer_._0/ffn.2/intermediate/dense/Tensordot/concat_1/axis", "op": "Const", "attr": {"dtype": {"type": "DT_INT32"}, "value": {"tensor": {"dtype": "DT_INT32", "tensorShape": {}}}}}, {"name": "unknown_37", "op": "Const", "attr": {"dtype": {"type": "DT_FLOAT"}, "value": {"tensor": {"dtype": "DT_FLOAT", "tensorShape": {"dim": [{"size": "1024"}]}}}}}, {"name": "ConstantFolding/StatefulPartitionedCall/mobilebert/encoder/layer_._0/ffn.2/intermediate/activation/truediv_recip", "op": "Const", "attr": {"dtype": {"type": "DT_FLOAT"}, "value": {"tensor": {"dtype": "DT_FLOAT", "tensorShape": {}}}}}, {"name": "StatefulPartitionedCall/mobilebert/encoder/layer_._0/ffn.2/output/dense/Tensordot/free", "op": "Const", "attr": {"dtype": {"type": "DT_INT32"}, "value": {"tensor": {"dtype": "DT_INT32", "tensorShape": {"dim": [{"size": "2"}]}}}}}, {"name": "StatefulPartitionedCall/mobilebert/encoder/layer_._0/ffn.2/output/dense/Tensordot/GatherV2/axis", "op": "Const", "attr": {"dtype": {"type": "DT_INT32"}, "value": {"tensor": {"dtype": "DT_INT32", "tensorShape": {}}}}}, {"name": "StatefulPartitionedCall/mobilebert/encoder/layer_._0/ffn.2/output/dense/Tensordot/Const_2", "op": "Const", "attr": {"dtype": {"type": "DT_INT32"}, "value": {"tensor": {"dtype": "DT_INT32", "tensorShape": {"dim": [{"size": "1"}]}}}}}, {"name": "StatefulPartitionedCall/mobilebert/encoder/layer_._0/ffn.2/output/dense/Tensordot/concat_1/axis", "op": "Const", "attr": {"dtype": {"type": "DT_INT32"}, "value": {"tensor": {"dtype": "DT_INT32", "tensorShape": {}}}}}, {"name": "unknown_39", "op": "Const", "attr": {"dtype": {"type": "DT_FLOAT"}, "value": {"tensor": {"dtype": "DT_FLOAT", "tensorShape": {"dim": [{"size": "128"}]}}}}}, {"name": "StatefulPartitionedCall/mobilebert/encoder/layer_._0/ffn.1/output/dense/Tensordot/Const", "op": "Const", "attr": {"value": {"tensor": {"dtype": "DT_INT32", "tensorShape": {"dim": [{"size": "1"}]}}}, "dtype": {"type": "DT_INT32"}}}, {"name": "StatefulPartitionedCall/mobilebert/encoder/layer_._0/ffn.1/output/dense/Tensordot/axes", "op": "Const", "attr": {"value": {"tensor": {"dtype": "DT_INT32", "tensorShape": {"dim": [{"size": "1"}]}}}, "dtype": {"type": "DT_INT32"}}}, {"name": "StatefulPartitionedCall/mobilebert/encoder/layer_._0/ffn.1/output/dense/Tensordot/GatherV2_1/axis", "op": "Const", "attr": {"dtype": {"type": "DT_INT32"}, "value": {"tensor": {"dtype": "DT_INT32", "tensorShape": {}}}}}, {"name": "StatefulPartitionedCall/mobilebert/encoder/layer_._0/ffn.1/output/dense/Tensordot/Const_1", "op": "Const", "attr": {"value": {"tensor": {"dtype": "DT_INT32", "tensorShape": {"dim": [{"size": "1"}]}}}, "dtype": {"type": "DT_INT32"}}}, {"name": "unknown_32", "op": "Const", "attr": {"value": {"tensor": {"dtype": "DT_FLOAT", "tensorShape": {"dim": [{"size": "1024"}, {"size": "128"}]}}}, "dtype": {"type": "DT_FLOAT"}}}, {"name": "StatefulPartitionedCall/mobilebert/encoder/layer_._0/ffn.1/intermediate/activation/mul/x", "op": "Const", "attr": {"value": {"tensor": {"dtype": "DT_FLOAT", "tensorShape": {}}}, "dtype": {"type": "DT_FLOAT"}}}, {"name": "StatefulPartitionedCall/mobilebert/encoder/layer_._0/ffn.1/intermediate/activation/add/x", "op": "Const", "attr": {"dtype": {"type": "DT_FLOAT"}, "value": {"tensor": {"dtype": "DT_FLOAT", "tensorShape": {}}}}}, {"name": "StatefulPartitionedCall/mobilebert/encoder/layer_._0/ffn.1/intermediate/dense/Tensordot/Const", "op": "Const", "attr": {"value": {"tensor": {"dtype": "DT_INT32", "tensorShape": {"dim": [{"size": "1"}]}}}, "dtype": {"type": "DT_INT32"}}}, {"name": "StatefulPartitionedCall/mobilebert/encoder/layer_._0/ffn.1/intermediate/dense/Tensordot/axes", "op": "Const", "attr": {"dtype": {"type": "DT_INT32"}, "value": {"tensor": {"dtype": "DT_INT32", "tensorShape": {"dim": [{"size": "1"}]}}}}}, {"name": "StatefulPartitionedCall/mobilebert/encoder/layer_._0/ffn.1/intermediate/dense/Tensordot/GatherV2_1/axis", "op": "Const", "attr": {"value": {"tensor": {"dtype": "DT_INT32", "tensorShape": {}}}, "dtype": {"type": "DT_INT32"}}}, {"name": "StatefulPartitionedCall/mobilebert/encoder/layer_._0/ffn.1/intermediate/dense/Tensordot/Const_1", "op": "Const", "attr": {"value": {"tensor": {"dtype": "DT_INT32", "tensorShape": {"dim": [{"size": "1"}]}}}, "dtype": {"type": "DT_INT32"}}}, {"name": "unknown_30", "op": "Const", "attr": {"value": {"tensor": {"dtype": "DT_FLOAT", "tensorShape": {"dim": [{"size": "128"}, {"size": "1024"}]}}}, "dtype": {"type": "DT_FLOAT"}}}, {"name": "StatefulPartitionedCall/mobilebert/encoder/layer_._0/ffn.1/intermediate/dense/Tensordot/free", "op": "Const", "attr": {"dtype": {"type": "DT_INT32"}, "value": {"tensor": {"dtype": "DT_INT32", "tensorShape": {"dim": [{"size": "2"}]}}}}}, {"name": "StatefulPartitionedCall/mobilebert/encoder/layer_._0/ffn.1/intermediate/dense/Tensordot/GatherV2/axis", "op": "Const", "attr": {"value": {"tensor": {"dtype": "DT_INT32", "tensorShape": {}}}, "dtype": {"type": "DT_INT32"}}}, {"name": "StatefulPartitionedCall/mobilebert/encoder/layer_._0/ffn.1/intermediate/dense/Tensordot/Const_2", "op": "Const", "attr": {"value": {"tensor": {"dtype": "DT_INT32", "tensorShape": {"dim": [{"size": "1"}]}}}, "dtype": {"type": "DT_INT32"}}}, {"name": "StatefulPartitionedCall/mobilebert/encoder/layer_._0/ffn.1/intermediate/dense/Tensordot/concat_1/axis", "op": "Const", "attr": {"value": {"tensor": {"dtype": "DT_INT32", "tensorShape": {}}}, "dtype": {"type": "DT_INT32"}}}, {"name": "unknown_31", "op": "Const", "attr": {"dtype": {"type": "DT_FLOAT"}, "value": {"tensor": {"dtype": "DT_FLOAT", "tensorShape": {"dim": [{"size": "1024"}]}}}}}, {"name": "ConstantFolding/StatefulPartitionedCall/mobilebert/encoder/layer_._0/ffn.1/intermediate/activation/truediv_recip", "op": "Const", "attr": {"dtype": {"type": "DT_FLOAT"}, "value": {"tensor": {"dtype": "DT_FLOAT", "tensorShape": {}}}}}, {"name": "StatefulPartitionedCall/mobilebert/encoder/layer_._0/ffn.1/output/dense/Tensordot/free", "op": "Const", "attr": {"dtype": {"type": "DT_INT32"}, "value": {"tensor": {"dtype": "DT_INT32", "tensorShape": {"dim": [{"size": "2"}]}}}}}, {"name": "StatefulPartitionedCall/mobilebert/encoder/layer_._0/ffn.1/output/dense/Tensordot/GatherV2/axis", "op": "Const", "attr": {"dtype": {"type": "DT_INT32"}, "value": {"tensor": {"dtype": "DT_INT32", "tensorShape": {}}}}}, {"name": "StatefulPartitionedCall/mobilebert/encoder/layer_._0/ffn.1/output/dense/Tensordot/Const_2", "op": "Const", "attr": {"value": {"tensor": {"dtype": "DT_INT32", "tensorShape": {"dim": [{"size": "1"}]}}}, "dtype": {"type": "DT_INT32"}}}, {"name": "StatefulPartitionedCall/mobilebert/encoder/layer_._0/ffn.1/output/dense/Tensordot/concat_1/axis", "op": "Const", "attr": {"value": {"tensor": {"dtype": "DT_INT32", "tensorShape": {}}}, "dtype": {"type": "DT_INT32"}}}, {"name": "unknown_33", "op": "Const", "attr": {"value": {"tensor": {"dtype": "DT_FLOAT", "tensorShape": {"dim": [{"size": "128"}]}}}, "dtype": {"type": "DT_FLOAT"}}}, {"name": "StatefulPartitionedCall/mobilebert/encoder/layer_._0/ffn.0/output/dense/Tensordot/Const", "op": "Const", "attr": {"dtype": {"type": "DT_INT32"}, "value": {"tensor": {"dtype": "DT_INT32", "tensorShape": {"dim": [{"size": "1"}]}}}}}, {"name": "StatefulPartitionedCall/mobilebert/encoder/layer_._0/ffn.0/output/dense/Tensordot/axes", "op": "Const", "attr": {"value": {"tensor": {"dtype": "DT_INT32", "tensorShape": {"dim": [{"size": "1"}]}}}, "dtype": {"type": "DT_INT32"}}}, {"name": "StatefulPartitionedCall/mobilebert/encoder/layer_._0/ffn.0/output/dense/Tensordot/GatherV2_1/axis", "op": "Const", "attr": {"dtype": {"type": "DT_INT32"}, "value": {"tensor": {"dtype": "DT_INT32", "tensorShape": {}}}}}, {"name": "StatefulPartitionedCall/mobilebert/encoder/layer_._0/ffn.0/output/dense/Tensordot/Const_1", "op": "Const", "attr": {"value": {"tensor": {"dtype": "DT_INT32", "tensorShape": {"dim": [{"size": "1"}]}}}, "dtype": {"type": "DT_INT32"}}}, {"name": "unknown_26", "op": "Const", "attr": {"value": {"tensor": {"dtype": "DT_FLOAT", "tensorShape": {"dim": [{"size": "1024"}, {"size": "128"}]}}}, "dtype": {"type": "DT_FLOAT"}}}, {"name": "StatefulPartitionedCall/mobilebert/encoder/layer_._0/ffn.0/intermediate/activation/mul/x", "op": "Const", "attr": {"value": {"tensor": {"dtype": "DT_FLOAT", "tensorShape": {}}}, "dtype": {"type": "DT_FLOAT"}}}, {"name": "StatefulPartitionedCall/mobilebert/encoder/layer_._0/ffn.0/intermediate/activation/add/x", "op": "Const", "attr": {"value": {"tensor": {"dtype": "DT_FLOAT", "tensorShape": {}}}, "dtype": {"type": "DT_FLOAT"}}}, {"name": "StatefulPartitionedCall/mobilebert/encoder/layer_._0/ffn.0/intermediate/dense/Tensordot/Const", "op": "Const", "attr": {"value": {"tensor": {"dtype": "DT_INT32", "tensorShape": {"dim": [{"size": "1"}]}}}, "dtype": {"type": "DT_INT32"}}}, {"name": "StatefulPartitionedCall/mobilebert/encoder/layer_._0/ffn.0/intermediate/dense/Tensordot/axes", "op": "Const", "attr": {"value": {"tensor": {"dtype": "DT_INT32", "tensorShape": {"dim": [{"size": "1"}]}}}, "dtype": {"type": "DT_INT32"}}}, {"name": "StatefulPartitionedCall/mobilebert/encoder/layer_._0/ffn.0/intermediate/dense/Tensordot/GatherV2_1/axis", "op": "Const", "attr": {"dtype": {"type": "DT_INT32"}, "value": {"tensor": {"dtype": "DT_INT32", "tensorShape": {}}}}}, {"name": "StatefulPartitionedCall/mobilebert/encoder/layer_._0/ffn.0/intermediate/dense/Tensordot/Const_1", "op": "Const", "attr": {"value": {"tensor": {"dtype": "DT_INT32", "tensorShape": {"dim": [{"size": "1"}]}}}, "dtype": {"type": "DT_INT32"}}}, {"name": "unknown_24", "op": "Const", "attr": {"value": {"tensor": {"dtype": "DT_FLOAT", "tensorShape": {"dim": [{"size": "128"}, {"size": "1024"}]}}}, "dtype": {"type": "DT_FLOAT"}}}, {"name": "StatefulPartitionedCall/mobilebert/encoder/layer_._0/ffn.0/intermediate/dense/Tensordot/free", "op": "Const", "attr": {"dtype": {"type": "DT_INT32"}, "value": {"tensor": {"dtype": "DT_INT32", "tensorShape": {"dim": [{"size": "2"}]}}}}}, {"name": "StatefulPartitionedCall/mobilebert/encoder/layer_._0/ffn.0/intermediate/dense/Tensordot/GatherV2/axis", "op": "Const", "attr": {"dtype": {"type": "DT_INT32"}, "value": {"tensor": {"dtype": "DT_INT32", "tensorShape": {}}}}}, {"name": "StatefulPartitionedCall/mobilebert/encoder/layer_._0/ffn.0/intermediate/dense/Tensordot/Const_2", "op": "Const", "attr": {"dtype": {"type": "DT_INT32"}, "value": {"tensor": {"dtype": "DT_INT32", "tensorShape": {"dim": [{"size": "1"}]}}}}}, {"name": "StatefulPartitionedCall/mobilebert/encoder/layer_._0/ffn.0/intermediate/dense/Tensordot/concat_1/axis", "op": "Const", "attr": {"dtype": {"type": "DT_INT32"}, "value": {"tensor": {"dtype": "DT_INT32", "tensorShape": {}}}}}, {"name": "unknown_25", "op": "Const", "attr": {"value": {"tensor": {"dtype": "DT_FLOAT", "tensorShape": {"dim": [{"size": "1024"}]}}}, "dtype": {"type": "DT_FLOAT"}}}, {"name": "ConstantFolding/StatefulPartitionedCall/mobilebert/encoder/layer_._0/ffn.0/intermediate/activation/truediv_recip", "op": "Const", "attr": {"value": {"tensor": {"dtype": "DT_FLOAT", "tensorShape": {}}}, "dtype": {"type": "DT_FLOAT"}}}, {"name": "StatefulPartitionedCall/mobilebert/encoder/layer_._0/ffn.0/output/dense/Tensordot/free", "op": "Const", "attr": {"value": {"tensor": {"dtype": "DT_INT32", "tensorShape": {"dim": [{"size": "2"}]}}}, "dtype": {"type": "DT_INT32"}}}, {"name": "StatefulPartitionedCall/mobilebert/encoder/layer_._0/ffn.0/output/dense/Tensordot/GatherV2/axis", "op": "Const", "attr": {"value": {"tensor": {"dtype": "DT_INT32", "tensorShape": {}}}, "dtype": {"type": "DT_INT32"}}}, {"name": "StatefulPartitionedCall/mobilebert/encoder/layer_._0/ffn.0/output/dense/Tensordot/Const_2", "op": "Const", "attr": {"value": {"tensor": {"dtype": "DT_INT32", "tensorShape": {"dim": [{"size": "1"}]}}}, "dtype": {"type": "DT_INT32"}}}, {"name": "StatefulPartitionedCall/mobilebert/encoder/layer_._0/ffn.0/output/dense/Tensordot/concat_1/axis", "op": "Const", "attr": {"value": {"tensor": {"dtype": "DT_INT32", "tensorShape": {}}}, "dtype": {"type": "DT_INT32"}}}, {"name": "unknown_27", "op": "Const", "attr": {"value": {"tensor": {"dtype": "DT_FLOAT", "tensorShape": {"dim": [{"size": "128"}]}}}, "dtype": {"type": "DT_FLOAT"}}}, {"name": "StatefulPartitionedCall/mobilebert/encoder/layer_._0/attention/output/dense/Tensordot/Const", "op": "Const", "attr": {"dtype": {"type": "DT_INT32"}, "value": {"tensor": {"dtype": "DT_INT32", "tensorShape": {"dim": [{"size": "1"}]}}}}}, {"name": "StatefulPartitionedCall/mobilebert/encoder/layer_._0/attention/output/dense/Tensordot/axes", "op": "Const", "attr": {"value": {"tensor": {"dtype": "DT_INT32", "tensorShape": {"dim": [{"size": "1"}]}}}, "dtype": {"type": "DT_INT32"}}}, {"name": "StatefulPartitionedCall/mobilebert/encoder/layer_._0/attention/output/dense/Tensordot/GatherV2_1/axis", "op": "Const", "attr": {"value": {"tensor": {"dtype": "DT_INT32", "tensorShape": {}}}, "dtype": {"type": "DT_INT32"}}}, {"name": "StatefulPartitionedCall/mobilebert/encoder/layer_._0/attention/output/dense/Tensordot/Const_1", "op": "Const", "attr": {"dtype": {"type": "DT_INT32"}, "value": {"tensor": {"dtype": "DT_INT32", "tensorShape": {"dim": [{"size": "1"}]}}}}}, {"name": "unknown_20", "op": "Const", "attr": {"dtype": {"type": "DT_FLOAT"}, "value": {"tensor": {"dtype": "DT_FLOAT", "tensorShape": {"dim": [{"size": "128"}, {"size": "128"}]}}}}}, {"name": "StatefulPartitionedCall/mobilebert/encoder/layer_._0/attention/self/query/Tensordot/Const", "op": "Const", "attr": {"value": {"tensor": {"dtype": "DT_INT32", "tensorShape": {"dim": [{"size": "1"}]}}}, "dtype": {"type": "DT_INT32"}}}, {"name": "StatefulPartitionedCall/mobilebert/encoder/layer_._0/attention/self/query/Tensordot/axes", "op": "Const", "attr": {"value": {"tensor": {"dtype": "DT_INT32", "tensorShape": {"dim": [{"size": "1"}]}}}, "dtype": {"type": "DT_INT32"}}}, {"name": "StatefulPartitionedCall/mobilebert/encoder/layer_._0/attention/self/query/Tensordot/GatherV2_1/axis", "op": "Const", "attr": {"dtype": {"type": "DT_INT32"}, "value": {"tensor": {"dtype": "DT_INT32", "tensorShape": {}}}}}, {"name": "StatefulPartitionedCall/mobilebert/encoder/layer_._0/attention/self/query/Tensordot/Const_1", "op": "Const", "attr": {"dtype": {"type": "DT_INT32"}, "value": {"tensor": {"dtype": "DT_INT32", "tensorShape": {"dim": [{"size": "1"}]}}}}}, {"name": "unknown_14", "op": "Const", "attr": {"value": {"tensor": {"dtype": "DT_FLOAT", "tensorShape": {"dim": [{"size": "128"}, {"size": "128"}]}}}, "dtype": {"type": "DT_FLOAT"}}}, {"name": "StatefulPartitionedCall/mobilebert/encoder/layer_._0/attention/self/query/Tensordot/free", "op": "Const", "attr": {"value": {"tensor": {"dtype": "DT_INT32", "tensorShape": {"dim": [{"size": "2"}]}}}, "dtype": {"type": "DT_INT32"}}}, {"name": "StatefulPartitionedCall/mobilebert/encoder/layer_._0/attention/self/query/Tensordot/GatherV2/axis", "op": "Const", "attr": {"value": {"tensor": {"dtype": "DT_INT32", "tensorShape": {}}}, "dtype": {"type": "DT_INT32"}}}, {"name": "StatefulPartitionedCall/mobilebert/encoder/layer_._0/attention/self/query/Tensordot/Const_2", "op": "Const", "attr": {"dtype": {"type": "DT_INT32"}, "value": {"tensor": {"dtype": "DT_INT32", "tensorShape": {"dim": [{"size": "1"}]}}}}}, {"name": "StatefulPartitionedCall/mobilebert/encoder/layer_._0/attention/self/query/Tensordot/concat_1/axis", "op": "Const", "attr": {"value": {"tensor": {"dtype": "DT_INT32", "tensorShape": {}}}, "dtype": {"type": "DT_INT32"}}}, {"name": "unknown_15", "op": "Const", "attr": {"value": {"tensor": {"dtype": "DT_FLOAT", "tensorShape": {"dim": [{"size": "128"}]}}}, "dtype": {"type": "DT_FLOAT"}}}, {"name": "StatefulPartitionedCall/mobilebert/encoder/layer_._0/attention/self/Reshape/shape", "op": "Const", "attr": {"value": {"tensor": {"dtype": "DT_INT32", "tensorShape": {"dim": [{"size": "4"}]}}}, "dtype": {"type": "DT_INT32"}}}, {"name": "StatefulPartitionedCall/mobilebert/encoder/layer_._0/attention/self/transpose/perm", "op": "Const", "attr": {"dtype": {"type": "DT_INT32"}, "value": {"tensor": {"dtype": "DT_INT32", "tensorShape": {"dim": [{"size": "4"}]}}}}}, {"name": "StatefulPartitionedCall/mobilebert/encoder/layer_._0/attention/self/key/Tensordot/Const", "op": "Const", "attr": {"dtype": {"type": "DT_INT32"}, "value": {"tensor": {"dtype": "DT_INT32", "tensorShape": {"dim": [{"size": "1"}]}}}}}, {"name": "StatefulPartitionedCall/mobilebert/encoder/layer_._0/attention/self/key/Tensordot/axes", "op": "Const", "attr": {"value": {"tensor": {"dtype": "DT_INT32", "tensorShape": {"dim": [{"size": "1"}]}}}, "dtype": {"type": "DT_INT32"}}}, {"name": "StatefulPartitionedCall/mobilebert/encoder/layer_._0/attention/self/key/Tensordot/GatherV2_1/axis", "op": "Const", "attr": {"value": {"tensor": {"dtype": "DT_INT32", "tensorShape": {}}}, "dtype": {"type": "DT_INT32"}}}, {"name": "StatefulPartitionedCall/mobilebert/encoder/layer_._0/attention/self/key/Tensordot/Const_1", "op": "Const", "attr": {"dtype": {"type": "DT_INT32"}, "value": {"tensor": {"dtype": "DT_INT32", "tensorShape": {"dim": [{"size": "1"}]}}}}}, {"name": "unknown_16", "op": "Const", "attr": {"value": {"tensor": {"dtype": "DT_FLOAT", "tensorShape": {"dim": [{"size": "128"}, {"size": "128"}]}}}, "dtype": {"type": "DT_FLOAT"}}}, {"name": "StatefulPartitionedCall/mobilebert/encoder/layer_._0/bottleneck/attention/dense/Tensordot/Const", "op": "Const", "attr": {"value": {"tensor": {"dtype": "DT_INT32", "tensorShape": {"dim": [{"size": "1"}]}}}, "dtype": {"type": "DT_INT32"}}}, {"name": "StatefulPartitionedCall/mobilebert/encoder/layer_._0/bottleneck/attention/dense/Tensordot/axes", "op": "Const", "attr": {"value": {"tensor": {"dtype": "DT_INT32", "tensorShape": {"dim": [{"size": "1"}]}}}, "dtype": {"type": "DT_INT32"}}}, {"name": "StatefulPartitionedCall/mobilebert/encoder/layer_._0/bottleneck/attention/dense/Tensordot/GatherV2_1/axis", "op": "Const", "attr": {"value": {"tensor": {"dtype": "DT_INT32", "tensorShape": {}}}, "dtype": {"type": "DT_INT32"}}}, {"name": "StatefulPartitionedCall/mobilebert/encoder/layer_._0/bottleneck/attention/dense/Tensordot/Const_1", "op": "Const", "attr": {"dtype": {"type": "DT_INT32"}, "value": {"tensor": {"dtype": "DT_INT32", "tensorShape": {"dim": [{"size": "1"}]}}}}}, {"name": "unknown_10", "op": "Const", "attr": {"dtype": {"type": "DT_FLOAT"}, "value": {"tensor": {"dtype": "DT_FLOAT", "tensorShape": {"dim": [{"size": "256"}, {"size": "128"}]}}}}}, {"name": "StatefulPartitionedCall/mobilebert/encoder/layer_._0/bottleneck/attention/dense/Tensordot/free", "op": "Const", "attr": {"dtype": {"type": "DT_INT32"}, "value": {"tensor": {"dtype": "DT_INT32", "tensorShape": {"dim": [{"size": "2"}]}}}}}, {"name": "StatefulPartitionedCall/mobilebert/encoder/layer_._0/bottleneck/attention/dense/Tensordot/GatherV2/axis", "op": "Const", "attr": {"dtype": {"type": "DT_INT32"}, "value": {"tensor": {"dtype": "DT_INT32", "tensorShape": {}}}}}, {"name": "StatefulPartitionedCall/mobilebert/encoder/layer_._0/bottleneck/attention/dense/Tensordot/Const_2", "op": "Const", "attr": {"value": {"tensor": {"dtype": "DT_INT32", "tensorShape": {"dim": [{"size": "1"}]}}}, "dtype": {"type": "DT_INT32"}}}, {"name": "StatefulPartitionedCall/mobilebert/encoder/layer_._0/bottleneck/attention/dense/Tensordot/concat_1/axis", "op": "Const", "attr": {"dtype": {"type": "DT_INT32"}, "value": {"tensor": {"dtype": "DT_INT32", "tensorShape": {}}}}}, {"name": "unknown_11", "op": "Const", "attr": {"value": {"tensor": {"dtype": "DT_FLOAT", "tensorShape": {"dim": [{"size": "128"}]}}}, "dtype": {"type": "DT_FLOAT"}}}, {"name": "unknown_12", "op": "Const", "attr": {"dtype": {"type": "DT_FLOAT"}, "value": {"tensor": {"dtype": "DT_FLOAT", "tensorShape": {"dim": [{"size": "128"}]}}}}}, {"name": "unknown_13", "op": "Const", "attr": {"dtype": {"type": "DT_FLOAT"}, "value": {"tensor": {"dtype": "DT_FLOAT", "tensorShape": {"dim": [{"size": "128"}]}}}}}, {"name": "StatefulPartitionedCall/mobilebert/encoder/layer_._0/attention/self/key/Tensordot/free", "op": "Const", "attr": {"value": {"tensor": {"dtype": "DT_INT32", "tensorShape": {"dim": [{"size": "2"}]}}}, "dtype": {"type": "DT_INT32"}}}, {"name": "StatefulPartitionedCall/mobilebert/encoder/layer_._0/attention/self/key/Tensordot/GatherV2/axis", "op": "Const", "attr": {"value": {"tensor": {"dtype": "DT_INT32", "tensorShape": {}}}, "dtype": {"type": "DT_INT32"}}}, {"name": "StatefulPartitionedCall/mobilebert/encoder/layer_._0/attention/self/key/Tensordot/Const_2", "op": "Const", "attr": {"dtype": {"type": "DT_INT32"}, "value": {"tensor": {"dtype": "DT_INT32", "tensorShape": {"dim": [{"size": "1"}]}}}}}, {"name": "StatefulPartitionedCall/mobilebert/encoder/layer_._0/attention/self/key/Tensordot/concat_1/axis", "op": "Const", "attr": {"dtype": {"type": "DT_INT32"}, "value": {"tensor": {"dtype": "DT_INT32", "tensorShape": {}}}}}, {"name": "unknown_17", "op": "Const", "attr": {"dtype": {"type": "DT_FLOAT"}, "value": {"tensor": {"dtype": "DT_FLOAT", "tensorShape": {"dim": [{"size": "128"}]}}}}}, {"name": "StatefulPartitionedCall/mobilebert/encoder/layer_._0/attention/self/Reshape_1/shape", "op": "Const", "attr": {"value": {"tensor": {"dtype": "DT_INT32", "tensorShape": {"dim": [{"size": "4"}]}}}, "dtype": {"type": "DT_INT32"}}}, {"name": "StatefulPartitionedCall/mobilebert/encoder/layer_._0/attention/self/transpose_1/perm", "op": "Const", "attr": {"dtype": {"type": "DT_INT32"}, "value": {"tensor": {"dtype": "DT_INT32", "tensorShape": {"dim": [{"size": "4"}]}}}}}, {"name": "ConstantFolding/StatefulPartitionedCall/mobilebert/encoder/layer_._0/attention/self/truediv_recip", "op": "Const", "attr": {"value": {"tensor": {"dtype": "DT_FLOAT", "tensorShape": {}}}, "dtype": {"type": "DT_FLOAT"}}}, {"name": "StatefulPartitionedCall/mobilebert/sub/x", "op": "Const", "attr": {"value": {"tensor": {"dtype": "DT_FLOAT", "tensorShape": {}}}, "dtype": {"type": "DT_FLOAT"}}}, {"name": "StatefulPartitionedCall/mobilebert/strided_slice_1/stack", "op": "Const", "attr": {"dtype": {"type": "DT_INT32"}, "value": {"tensor": {"dtype": "DT_INT32", "tensorShape": {"dim": [{"size": "4"}]}}}}}, {"name": "StatefulPartitionedCall/mobilebert/strided_slice_1/stack_1", "op": "Const", "attr": {"value": {"tensor": {"dtype": "DT_INT32", "tensorShape": {"dim": [{"size": "4"}]}}}, "dtype": {"type": "DT_INT32"}}}, {"name": "StatefulPartitionedCall/mobilebert/strided_slice_1/stack_2", "op": "Const", "attr": {"dtype": {"type": "DT_INT32"}, "value": {"tensor": {"dtype": "DT_INT32", "tensorShape": {"dim": [{"size": "4"}]}}}}}, {"name": "StatefulPartitionedCall/mobilebert/mul/y", "op": "Const", "attr": {"value": {"tensor": {"dtype": "DT_FLOAT", "tensorShape": {}}}, "dtype": {"type": "DT_FLOAT"}}}, {"name": "StatefulPartitionedCall/mobilebert/encoder/layer_._0/attention/self/value/Tensordot/Const", "op": "Const", "attr": {"value": {"tensor": {"dtype": "DT_INT32", "tensorShape": {"dim": [{"size": "1"}]}}}, "dtype": {"type": "DT_INT32"}}}, {"name": "StatefulPartitionedCall/mobilebert/encoder/layer_._0/attention/self/value/Tensordot/axes", "op": "Const", "attr": {"dtype": {"type": "DT_INT32"}, "value": {"tensor": {"dtype": "DT_INT32", "tensorShape": {"dim": [{"size": "1"}]}}}}}, {"name": "StatefulPartitionedCall/mobilebert/encoder/layer_._0/attention/self/value/Tensordot/GatherV2_1/axis", "op": "Const", "attr": {"dtype": {"type": "DT_INT32"}, "value": {"tensor": {"dtype": "DT_INT32", "tensorShape": {}}}}}, {"name": "StatefulPartitionedCall/mobilebert/encoder/layer_._0/attention/self/value/Tensordot/Const_1", "op": "Const", "attr": {"dtype": {"type": "DT_INT32"}, "value": {"tensor": {"dtype": "DT_INT32", "tensorShape": {"dim": [{"size": "1"}]}}}}}, {"name": "unknown_18", "op": "Const", "attr": {"value": {"tensor": {"dtype": "DT_FLOAT", "tensorShape": {"dim": [{"size": "256"}, {"size": "128"}]}}}, "dtype": {"type": "DT_FLOAT"}}}, {"name": "StatefulPartitionedCall/mobilebert/encoder/layer_._0/attention/self/value/Tensordot/free", "op": "Const", "attr": {"dtype": {"type": "DT_INT32"}, "value": {"tensor": {"dtype": "DT_INT32", "tensorShape": {"dim": [{"size": "2"}]}}}}}, {"name": "StatefulPartitionedCall/mobilebert/encoder/layer_._0/attention/self/value/Tensordot/GatherV2/axis", "op": "Const", "attr": {"value": {"tensor": {"dtype": "DT_INT32", "tensorShape": {}}}, "dtype": {"type": "DT_INT32"}}}, {"name": "StatefulPartitionedCall/mobilebert/encoder/layer_._0/attention/self/value/Tensordot/Const_2", "op": "Const", "attr": {"dtype": {"type": "DT_INT32"}, "value": {"tensor": {"dtype": "DT_INT32", "tensorShape": {"dim": [{"size": "1"}]}}}}}, {"name": "StatefulPartitionedCall/mobilebert/encoder/layer_._0/attention/self/value/Tensordot/concat_1/axis", "op": "Const", "attr": {"value": {"tensor": {"dtype": "DT_INT32", "tensorShape": {}}}, "dtype": {"type": "DT_INT32"}}}, {"name": "unknown_19", "op": "Const", "attr": {"dtype": {"type": "DT_FLOAT"}, "value": {"tensor": {"dtype": "DT_FLOAT", "tensorShape": {"dim": [{"size": "128"}]}}}}}, {"name": "StatefulPartitionedCall/mobilebert/encoder/layer_._0/attention/self/Reshape_2/shape", "op": "Const", "attr": {"value": {"tensor": {"dtype": "DT_INT32", "tensorShape": {"dim": [{"size": "4"}]}}}, "dtype": {"type": "DT_INT32"}}}, {"name": "StatefulPartitionedCall/mobilebert/encoder/layer_._0/attention/self/transpose_2/perm", "op": "Const", "attr": {"dtype": {"type": "DT_INT32"}, "value": {"tensor": {"dtype": "DT_INT32", "tensorShape": {"dim": [{"size": "4"}]}}}}}, {"name": "StatefulPartitionedCall/mobilebert/encoder/layer_._0/attention/self/transpose_3/perm", "op": "Const", "attr": {"value": {"tensor": {"dtype": "DT_INT32", "tensorShape": {"dim": [{"size": "4"}]}}}, "dtype": {"type": "DT_INT32"}}}, {"name": "StatefulPartitionedCall/mobilebert/encoder/layer_._0/attention/self/Reshape_3/shape", "op": "Const", "attr": {"dtype": {"type": "DT_INT32"}, "value": {"tensor": {"dtype": "DT_INT32", "tensorShape": {"dim": [{"size": "3"}]}}}}}, {"name": "StatefulPartitionedCall/mobilebert/encoder/layer_._0/attention/output/dense/Tensordot/free", "op": "Const", "attr": {"dtype": {"type": "DT_INT32"}, "value": {"tensor": {"dtype": "DT_INT32", "tensorShape": {"dim": [{"size": "2"}]}}}}}, {"name": "StatefulPartitionedCall/mobilebert/encoder/layer_._0/attention/output/dense/Tensordot/GatherV2/axis", "op": "Const", "attr": {"dtype": {"type": "DT_INT32"}, "value": {"tensor": {"dtype": "DT_INT32", "tensorShape": {}}}}}, {"name": "StatefulPartitionedCall/mobilebert/encoder/layer_._0/attention/output/dense/Tensordot/Const_2", "op": "Const", "attr": {"value": {"tensor": {"dtype": "DT_INT32", "tensorShape": {"dim": [{"size": "1"}]}}}, "dtype": {"type": "DT_INT32"}}}, {"name": "StatefulPartitionedCall/mobilebert/encoder/layer_._0/attention/output/dense/Tensordot/concat_1/axis", "op": "Const", "attr": {"value": {"tensor": {"dtype": "DT_INT32", "tensorShape": {}}}, "dtype": {"type": "DT_INT32"}}}, {"name": "unknown_21", "op": "Const", "attr": {"value": {"tensor": {"dtype": "DT_FLOAT", "tensorShape": {"dim": [{"size": "128"}]}}}, "dtype": {"type": "DT_FLOAT"}}}, {"name": "StatefulPartitionedCall/mobilebert/encoder/layer_._0/bottleneck/input/dense/Tensordot/Const", "op": "Const", "attr": {"dtype": {"type": "DT_INT32"}, "value": {"tensor": {"dtype": "DT_INT32", "tensorShape": {"dim": [{"size": "1"}]}}}}}, {"name": "StatefulPartitionedCall/mobilebert/encoder/layer_._0/bottleneck/input/dense/Tensordot/axes", "op": "Const", "attr": {"value": {"tensor": {"dtype": "DT_INT32", "tensorShape": {"dim": [{"size": "1"}]}}}, "dtype": {"type": "DT_INT32"}}}, {"name": "StatefulPartitionedCall/mobilebert/encoder/layer_._0/bottleneck/input/dense/Tensordot/GatherV2_1/axis", "op": "Const", "attr": {"dtype": {"type": "DT_INT32"}, "value": {"tensor": {"dtype": "DT_INT32", "tensorShape": {}}}}}, {"name": "StatefulPartitionedCall/mobilebert/encoder/layer_._0/bottleneck/input/dense/Tensordot/Const_1", "op": "Const", "attr": {"value": {"tensor": {"dtype": "DT_INT32", "tensorShape": {"dim": [{"size": "1"}]}}}, "dtype": {"type": "DT_INT32"}}}, {"name": "unknown_6", "op": "Const", "attr": {"dtype": {"type": "DT_FLOAT"}, "value": {"tensor": {"dtype": "DT_FLOAT", "tensorShape": {"dim": [{"size": "256"}, {"size": "128"}]}}}}}, {"name": "StatefulPartitionedCall/mobilebert/encoder/layer_._0/bottleneck/input/dense/Tensordot/free", "op": "Const", "attr": {"value": {"tensor": {"dtype": "DT_INT32", "tensorShape": {"dim": [{"size": "2"}]}}}, "dtype": {"type": "DT_INT32"}}}, {"name": "StatefulPartitionedCall/mobilebert/encoder/layer_._0/bottleneck/input/dense/Tensordot/GatherV2/axis", "op": "Const", "attr": {"value": {"tensor": {"dtype": "DT_INT32", "tensorShape": {}}}, "dtype": {"type": "DT_INT32"}}}, {"name": "StatefulPartitionedCall/mobilebert/encoder/layer_._0/bottleneck/input/dense/Tensordot/Const_2", "op": "Const", "attr": {"value": {"tensor": {"dtype": "DT_INT32", "tensorShape": {"dim": [{"size": "1"}]}}}, "dtype": {"type": "DT_INT32"}}}, {"name": "StatefulPartitionedCall/mobilebert/encoder/layer_._0/bottleneck/input/dense/Tensordot/concat_1/axis", "op": "Const", "attr": {"dtype": {"type": "DT_INT32"}, "value": {"tensor": {"dtype": "DT_INT32", "tensorShape": {}}}}}, {"name": "unknown_7", "op": "Const", "attr": {"dtype": {"type": "DT_FLOAT"}, "value": {"tensor": {"dtype": "DT_FLOAT", "tensorShape": {"dim": [{"size": "128"}]}}}}}, {"name": "unknown_8", "op": "Const", "attr": {"value": {"tensor": {"dtype": "DT_FLOAT", "tensorShape": {"dim": [{"size": "128"}]}}}, "dtype": {"type": "DT_FLOAT"}}}, {"name": "unknown_9", "op": "Const", "attr": {"dtype": {"type": "DT_FLOAT"}, "value": {"tensor": {"dtype": "DT_FLOAT", "tensorShape": {"dim": [{"size": "128"}]}}}}}, {"name": "unknown_22", "op": "Const", "attr": {"value": {"tensor": {"dtype": "DT_FLOAT", "tensorShape": {"dim": [{"size": "128"}]}}}, "dtype": {"type": "DT_FLOAT"}}}, {"name": "unknown_23", "op": "Const", "attr": {"value": {"tensor": {"dtype": "DT_FLOAT", "tensorShape": {"dim": [{"size": "128"}]}}}, "dtype": {"type": "DT_FLOAT"}}}, {"name": "unknown_28", "op": "Const", "attr": {"dtype": {"type": "DT_FLOAT"}, "value": {"tensor": {"dtype": "DT_FLOAT", "tensorShape": {"dim": [{"size": "128"}]}}}}}, {"name": "unknown_29", "op": "Const", "attr": {"value": {"tensor": {"dtype": "DT_FLOAT", "tensorShape": {"dim": [{"size": "128"}]}}}, "dtype": {"type": "DT_FLOAT"}}}, {"name": "unknown_34", "op": "Const", "attr": {"dtype": {"type": "DT_FLOAT"}, "value": {"tensor": {"dtype": "DT_FLOAT", "tensorShape": {"dim": [{"size": "128"}]}}}}}, {"name": "unknown_35", "op": "Const", "attr": {"dtype": {"type": "DT_FLOAT"}, "value": {"tensor": {"dtype": "DT_FLOAT", "tensorShape": {"dim": [{"size": "128"}]}}}}}, {"name": "unknown_40", "op": "Const", "attr": {"value": {"tensor": {"dtype": "DT_FLOAT", "tensorShape": {"dim": [{"size": "128"}]}}}, "dtype": {"type": "DT_FLOAT"}}}, {"name": "unknown_41", "op": "Const", "attr": {"value": {"tensor": {"dtype": "DT_FLOAT", "tensorShape": {"dim": [{"size": "128"}]}}}, "dtype": {"type": "DT_FLOAT"}}}, {"name": "unknown_46", "op": "Const", "attr": {"value": {"tensor": {"dtype": "DT_FLOAT", "tensorShape": {"dim": [{"size": "128"}]}}}, "dtype": {"type": "DT_FLOAT"}}}, {"name": "unknown_47", "op": "Const", "attr": {"dtype": {"type": "DT_FLOAT"}, "value": {"tensor": {"dtype": "DT_FLOAT", "tensorShape": {"dim": [{"size": "128"}]}}}}}, {"name": "StatefulPartitionedCall/mobilebert/encoder/layer_._0/output/bottleneck/dense/Tensordot/free", "op": "Const", "attr": {"value": {"tensor": {"dtype": "DT_INT32", "tensorShape": {"dim": [{"size": "2"}]}}}, "dtype": {"type": "DT_INT32"}}}, {"name": "StatefulPartitionedCall/mobilebert/encoder/layer_._0/output/bottleneck/dense/Tensordot/GatherV2/axis", "op": "Const", "attr": {"value": {"tensor": {"dtype": "DT_INT32", "tensorShape": {}}}, "dtype": {"type": "DT_INT32"}}}, {"name": "StatefulPartitionedCall/mobilebert/encoder/layer_._0/output/bottleneck/dense/Tensordot/Const_2", "op": "Const", "attr": {"dtype": {"type": "DT_INT32"}, "value": {"tensor": {"dtype": "DT_INT32", "tensorShape": {"dim": [{"size": "1"}]}}}}}, {"name": "StatefulPartitionedCall/mobilebert/encoder/layer_._0/output/bottleneck/dense/Tensordot/concat_1/axis", "op": "Const", "attr": {"dtype": {"type": "DT_INT32"}, "value": {"tensor": {"dtype": "DT_INT32", "tensorShape": {}}}}}, {"name": "unknown_49", "op": "Const", "attr": {"dtype": {"type": "DT_FLOAT"}, "value": {"tensor": {"dtype": "DT_FLOAT", "tensorShape": {"dim": [{"size": "256"}]}}}}}, {"name": "StatefulPartitionedCall/mobilebert/embeddings/embedding_transformation/Tensordot/Const", "op": "Const", "attr": {"value": {"tensor": {"dtype": "DT_INT32", "tensorShape": {"dim": [{"size": "1"}]}}}, "dtype": {"type": "DT_INT32"}}}, {"name": "StatefulPartitionedCall/mobilebert/embeddings/embedding_transformation/Tensordot/axes", "op": "Const", "attr": {"dtype": {"type": "DT_INT32"}, "value": {"tensor": {"dtype": "DT_INT32", "tensorShape": {"dim": [{"size": "1"}]}}}}}, {"name": "StatefulPartitionedCall/mobilebert/embeddings/embedding_transformation/Tensordot/GatherV2_1/axis", "op": "Const", "attr": {"value": {"tensor": {"dtype": "DT_INT32", "tensorShape": {}}}, "dtype": {"type": "DT_INT32"}}}, {"name": "StatefulPartitionedCall/mobilebert/embeddings/embedding_transformation/Tensordot/Const_1", "op": "Const", "attr": {"dtype": {"type": "DT_INT32"}, "value": {"tensor": {"dtype": "DT_INT32", "tensorShape": {"dim": [{"size": "1"}]}}}}}, {"name": "unknown_0", "op": "Const", "attr": {"value": {"tensor": {"dtype": "DT_FLOAT", "tensorShape": {"dim": [{"size": "384"}, {"size": "256"}]}}}, "dtype": {"type": "DT_FLOAT"}}}, {"name": "StatefulPartitionedCall/mobilebert/embeddings/strided_slice_2/stack", "op": "Const", "attr": {"dtype": {"type": "DT_INT32"}, "value": {"tensor": {"dtype": "DT_INT32", "tensorShape": {"dim": [{"size": "2"}]}}}}}, {"name": "StatefulPartitionedCall/mobilebert/embeddings/strided_slice_2/stack_1", "op": "Const", "attr": {"dtype": {"type": "DT_INT32"}, "value": {"tensor": {"dtype": "DT_INT32", "tensorShape": {"dim": [{"size": "2"}]}}}}}, {"name": "StatefulPartitionedCall/mobilebert/embeddings/strided_slice_2/stack_2", "op": "Const", "attr": {"dtype": {"type": "DT_INT32"}, "value": {"tensor": {"dtype": "DT_INT32", "tensorShape": {"dim": [{"size": "2"}]}}}}}, {"name": "StatefulPartitionedCall/mobilebert/embeddings/Pad/paddings", "op": "Const", "attr": {"value": {"tensor": {"dtype": "DT_INT32", "tensorShape": {"dim": [{"size": "3"}, {"size": "2"}]}}}, "dtype": {"type": "DT_INT32"}}}, {"name": "unknown", "op": "Const", "attr": {"dtype": {"type": "DT_FLOAT"}, "value": {"tensor": {"dtype": "DT_FLOAT", "tensorShape": {"dim": [{"size": "30522"}, {"size": "128"}]}}}}}, {"name": "StatefulPartitionedCall/mobilebert/embeddings/Gather/axis", "op": "Const", "attr": {"dtype": {"type": "DT_INT32"}, "value": {"tensor": {"dtype": "DT_INT32", "tensorShape": {}}}}}, {"name": "StatefulPartitionedCall/mobilebert/embeddings/strided_slice_3/stack", "op": "Const", "attr": {"value": {"tensor": {"dtype": "DT_INT32", "tensorShape": {"dim": [{"size": "2"}]}}}, "dtype": {"type": "DT_INT32"}}}, {"name": "StatefulPartitionedCall/mobilebert/embeddings/strided_slice_3/stack_1", "op": "Const", "attr": {"dtype": {"type": "DT_INT32"}, "value": {"tensor": {"dtype": "DT_INT32", "tensorShape": {"dim": [{"size": "2"}]}}}}}, {"name": "StatefulPartitionedCall/mobilebert/embeddings/strided_slice_3/stack_2", "op": "Const", "attr": {"dtype": {"type": "DT_INT32"}, "value": {"tensor": {"dtype": "DT_INT32", "tensorShape": {"dim": [{"size": "2"}]}}}}}, {"name": "StatefulPartitionedCall/mobilebert/embeddings/Pad_1/paddings", "op": "Const", "attr": {"value": {"tensor": {"dtype": "DT_INT32", "tensorShape": {"dim": [{"size": "3"}, {"size": "2"}]}}}, "dtype": {"type": "DT_INT32"}}}, {"name": "StatefulPartitionedCall/mobilebert/embeddings/concat/axis", "op": "Const", "attr": {"value": {"tensor": {"dtype": "DT_INT32", "tensorShape": {}}}, "dtype": {"type": "DT_INT32"}}}, {"name": "StatefulPartitionedCall/mobilebert/embeddings/embedding_transformation/Tensordot/free", "op": "Const", "attr": {"dtype": {"type": "DT_INT32"}, "value": {"tensor": {"dtype": "DT_INT32", "tensorShape": {"dim": [{"size": "2"}]}}}}}, {"name": "StatefulPartitionedCall/mobilebert/embeddings/embedding_transformation/Tensordot/GatherV2/axis", "op": "Const", "attr": {"value": {"tensor": {"dtype": "DT_INT32", "tensorShape": {}}}, "dtype": {"type": "DT_INT32"}}}, {"name": "StatefulPartitionedCall/mobilebert/embeddings/embedding_transformation/Tensordot/Const_2", "op": "Const", "attr": {"value": {"tensor": {"dtype": "DT_INT32", "tensorShape": {"dim": [{"size": "1"}]}}}, "dtype": {"type": "DT_INT32"}}}, {"name": "StatefulPartitionedCall/mobilebert/embeddings/embedding_transformation/Tensordot/concat_1/axis", "op": "Const", "attr": {"dtype": {"type": "DT_INT32"}, "value": {"tensor": {"dtype": "DT_INT32", "tensorShape": {}}}}}, {"name": "unknown_1", "op": "Const", "attr": {"value": {"tensor": {"dtype": "DT_FLOAT", "tensorShape": {"dim": [{"size": "256"}]}}}, "dtype": {"type": "DT_FLOAT"}}}, {"name": "unknown_2", "op": "Const", "attr": {"value": {"tensor": {"dtype": "DT_FLOAT", "tensorShape": {"dim": [{"size": "512"}, {"size": "256"}]}}}, "dtype": {"type": "DT_FLOAT"}}}, {"name": "StatefulPartitionedCall/mobilebert/embeddings/range/start", "op": "Const", "attr": {"value": {"tensor": {"dtype": "DT_INT32", "tensorShape": {}}}, "dtype": {"type": "DT_INT32"}}}, {"name": "StatefulPartitionedCall/mobilebert/embeddings/strided_slice/stack", "op": "Const", "attr": {"value": {"tensor": {"dtype": "DT_INT32", "tensorShape": {"dim": [{"size": "1"}]}}}, "dtype": {"type": "DT_INT32"}}}, {"name": "StatefulPartitionedCall/mobilebert/embeddings/strided_slice/stack_1", "op": "Const", "attr": {"value": {"tensor": {"dtype": "DT_INT32", "tensorShape": {"dim": [{"size": "1"}]}}}, "dtype": {"type": "DT_INT32"}}}, {"name": "StatefulPartitionedCall/mobilebert/embeddings/strided_slice/stack_2", "op": "Const", "attr": {"dtype": {"type": "DT_INT32"}, "value": {"tensor": {"dtype": "DT_INT32", "tensorShape": {"dim": [{"size": "1"}]}}}}}, {"name": "StatefulPartitionedCall/mobilebert/embeddings/range/delta", "op": "Const", "attr": {"dtype": {"type": "DT_INT32"}, "value": {"tensor": {"dtype": "DT_INT32", "tensorShape": {}}}}}, {"name": "StatefulPartitionedCall/mobilebert/embeddings/strided_slice_1/stack", "op": "Const", "attr": {"dtype": {"type": "DT_INT32"}, "value": {"tensor": {"dtype": "DT_INT32", "tensorShape": {"dim": [{"size": "2"}]}}}}}, {"name": "StatefulPartitionedCall/mobilebert/embeddings/strided_slice_1/stack_1", "op": "Const", "attr": {"value": {"tensor": {"dtype": "DT_INT32", "tensorShape": {"dim": [{"size": "2"}]}}}, "dtype": {"type": "DT_INT32"}}}, {"name": "StatefulPartitionedCall/mobilebert/embeddings/strided_slice_1/stack_2", "op": "Const", "attr": {"dtype": {"type": "DT_INT32"}, "value": {"tensor": {"dtype": "DT_INT32", "tensorShape": {"dim": [{"size": "2"}]}}}}}, {"name": "StatefulPartitionedCall/mobilebert/embeddings/position_embeddings/embedding_lookup/axis", "op": "Const", "attr": {"dtype": {"type": "DT_INT32"}, "value": {"tensor": {"dtype": "DT_INT32", "tensorShape": {}}}}}, {"name": "unknown_3", "op": "Const", "attr": {"dtype": {"type": "DT_FLOAT"}, "value": {"tensor": {"dtype": "DT_FLOAT", "tensorShape": {"dim": [{"size": "2"}, {"size": "256"}]}}}}}, {"name": "StatefulPartitionedCall/mobilebert/Fill/dims/0", "op": "Const", "attr": {"dtype": {"type": "DT_INT32"}, "value": {"tensor": {"dtype": "DT_INT32", "tensorShape": {}}}}}, {"name": "StatefulPartitionedCall/mobilebert/strided_slice/stack", "op": "Const", "attr": {"value": {"tensor": {"dtype": "DT_INT32", "tensorShape": {"dim": [{"size": "1"}]}}}, "dtype": {"type": "DT_INT32"}}}, {"name": "StatefulPartitionedCall/mobilebert/strided_slice/stack_1", "op": "Const", "attr": {"value": {"tensor": {"dtype": "DT_INT32", "tensorShape": {"dim": [{"size": "1"}]}}}, "dtype": {"type": "DT_INT32"}}}, {"name": "StatefulPartitionedCall/mobilebert/strided_slice/stack_2", "op": "Const", "attr": {"value": {"tensor": {"dtype": "DT_INT32", "tensorShape": {"dim": [{"size": "1"}]}}}, "dtype": {"type": "DT_INT32"}}}, {"name": "StatefulPartitionedCall/mobilebert/Fill/value", "op": "Const", "attr": {"dtype": {"type": "DT_INT32"}, "value": {"tensor": {"dtype": "DT_INT32", "tensorShape": {}}}}}, {"name": "StatefulPartitionedCall/mobilebert/embeddings/token_type_embeddings/embedding_lookup/axis", "op": "Const", "attr": {"dtype": {"type": "DT_INT32"}, "value": {"tensor": {"dtype": "DT_INT32", "tensorShape": {}}}}}, {"name": "unknown_4", "op": "Const", "attr": {"value": {"tensor": {"dtype": "DT_FLOAT", "tensorShape": {"dim": [{"size": "256"}]}}}, "dtype": {"type": "DT_FLOAT"}}}, {"name": "unknown_5", "op": "Const", "attr": {"dtype": {"type": "DT_FLOAT"}, "value": {"tensor": {"dtype": "DT_FLOAT", "tensorShape": {"dim": [{"size": "256"}]}}}}}, {"name": "unknown_50", "op": "Const", "attr": {"dtype": {"type": "DT_FLOAT"}, "value": {"tensor": {"dtype": "DT_FLOAT", "tensorShape": {"dim": [{"size": "256"}]}}}}}, {"name": "unknown_51", "op": "Const", "attr": {"dtype": {"type": "DT_FLOAT"}, "value": {"tensor": {"dtype": "DT_FLOAT", "tensorShape": {"dim": [{"size": "256"}]}}}}}, {"name": "unknown_96", "op": "Const", "attr": {"dtype": {"type": "DT_FLOAT"}, "value": {"tensor": {"dtype": "DT_FLOAT", "tensorShape": {"dim": [{"size": "256"}]}}}}}, {"name": "unknown_97", "op": "Const", "attr": {"value": {"tensor": {"dtype": "DT_FLOAT", "tensorShape": {"dim": [{"size": "256"}]}}}, "dtype": {"type": "DT_FLOAT"}}}, {"name": "StatefulPartitionedCall/classifier/Tensordot/free", "op": "Const", "attr": {"dtype": {"type": "DT_INT32"}, "value": {"tensor": {"dtype": "DT_INT32", "tensorShape": {"dim": [{"size": "2"}]}}}}}, {"name": "StatefulPartitionedCall/classifier/Tensordot/GatherV2/axis", "op": "Const", "attr": {"dtype": {"type": "DT_INT32"}, "value": {"tensor": {"dtype": "DT_INT32", "tensorShape": {}}}}}, {"name": "StatefulPartitionedCall/classifier/Tensordot/Const_2", "op": "Const", "attr": {"dtype": {"type": "DT_INT32"}, "value": {"tensor": {"dtype": "DT_INT32", "tensorShape": {"dim": [{"size": "1"}]}}}}}, {"name": "StatefulPartitionedCall/classifier/Tensordot/concat_1/axis", "op": "Const", "attr": {"value": {"tensor": {"dtype": "DT_INT32", "tensorShape": {}}}, "dtype": {"type": "DT_INT32"}}}, {"name": "unknown_99", "op": "Const", "attr": {"dtype": {"type": "DT_FLOAT"}, "value": {"tensor": {"dtype": "DT_FLOAT", "tensorShape": {"dim": [{"size": "13"}]}}}}}, {"name": "attention_mask", "op": "Placeholder", "attr": {"dtype": {"type": "DT_INT32"}, "shape": {"shape": {"dim": [{"size": "1"}, {"size": "-1"}]}}}}, {"name": "input_ids", "op": "Placeholder", "attr": {"shape": {"shape": {"dim": [{"size": "1"}, {"size": "-1"}]}}, "dtype": {"type": "DT_INT32"}}}, {"name": "StatefulPartitionedCall/mobilebert/strided_slice_1", "op": "StridedSlice", "input": ["attention_mask", "StatefulPartitionedCall/mobilebert/strided_slice_1/stack", "StatefulPartitionedCall/mobilebert/strided_slice_1/stack_1", "StatefulPartitionedCall/mobilebert/strided_slice_1/stack_2"], "attr": {"end_mask": {"i": "9"}, "new_axis_mask": {"i": "6"}, "shrink_axis_mask": {"i": "0"}, "begin_mask": {"i": "9"}, "T": {"type": "DT_INT32"}, "ellipsis_mask": {"i": "0"}, "Index": {"type": "DT_INT32"}}}, {"name": "StatefulPartitionedCall/mobilebert/embeddings/Gather", "op": "GatherV2", "input": ["unknown", "input_ids", "StatefulPartitionedCall/mobilebert/embeddings/Gather/axis"], "attr": {"batch_dims": {"i": "0"}, "Tindices": {"type": "DT_INT32"}, "Tparams": {"type": "DT_FLOAT"}, "Taxis": {"type": "DT_INT32"}}}, {"name": "StatefulPartitionedCall/mobilebert/embeddings/Shape", "op": "Shape", "input": ["input_ids"], "attr": {"out_type": {"type": "DT_INT32"}, "T": {"type": "DT_INT32"}}}, {"name": "StatefulPartitionedCall/mobilebert/Shape", "op": "Shape", "input": ["input_ids"], "attr": {"T": {"type": "DT_INT32"}, "out_type": {"type": "DT_INT32"}}}, {"name": "StatefulPartitionedCall/mobilebert/Cast", "op": "Cast", "input": ["StatefulPartitionedCall/mobilebert/strided_slice_1"], "attr": {"Truncate": {"b": false}, "SrcT": {"type": "DT_INT32"}, "DstT": {"type": "DT_FLOAT"}}}, {"name": "StatefulPartitionedCall/mobilebert/embeddings/strided_slice_2", "op": "StridedSlice", "input": ["StatefulPartitionedCall/mobilebert/embeddings/Gather", "StatefulPartitionedCall/mobilebert/embeddings/strided_slice_2/stack", "StatefulPartitionedCall/mobilebert/embeddings/strided_slice_2/stack_1", "StatefulPartitionedCall/mobilebert/embeddings/strided_slice_2/stack_2"], "attr": {"new_axis_mask": {"i": "0"}, "shrink_axis_mask": {"i": "0"}, "Index": {"type": "DT_INT32"}, "begin_mask": {"i": "1"}, "ellipsis_mask": {"i": "0"}, "T": {"type": "DT_FLOAT"}, "end_mask": {"i": "3"}}}, {"name": "StatefulPartitionedCall/mobilebert/embeddings/strided_slice_3", "op": "StridedSlice", "input": ["StatefulPartitionedCall/mobilebert/embeddings/Gather", "StatefulPartitionedCall/mobilebert/embeddings/strided_slice_3/stack", "StatefulPartitionedCall/mobilebert/embeddings/strided_slice_3/stack_1", "StatefulPartitionedCall/mobilebert/embeddings/strided_slice_3/stack_2"], "attr": {"new_axis_mask": {"i": "0"}, "end_mask": {"i": "1"}, "T": {"type": "DT_FLOAT"}, "shrink_axis_mask": {"i": "0"}, "begin_mask": {"i": "3"}, "Index": {"type": "DT_INT32"}, "ellipsis_mask": {"i": "0"}}}, {"name": "StatefulPartitionedCall/mobilebert/embeddings/strided_slice", "op": "StridedSlice", "input": ["StatefulPartitionedCall/mobilebert/embeddings/Shape", "StatefulPartitionedCall/mobilebert/embeddings/strided_slice/stack", "StatefulPartitionedCall/mobilebert/embeddings/strided_slice/stack_1", "StatefulPartitionedCall/mobilebert/embeddings/strided_slice/stack_2"], "attr": {"end_mask": {"i": "0"}, "T": {"type": "DT_INT32"}, "new_axis_mask": {"i": "0"}, "ellipsis_mask": {"i": "0"}, "Index": {"type": "DT_INT32"}, "shrink_axis_mask": {"i": "1"}, "begin_mask": {"i": "0"}}}, {"name": "StatefulPartitionedCall/mobilebert/strided_slice", "op": "StridedSlice", "input": ["StatefulPartitionedCall/mobilebert/Shape", "StatefulPartitionedCall/mobilebert/strided_slice/stack", "StatefulPartitionedCall/mobilebert/strided_slice/stack_1", "StatefulPartitionedCall/mobilebert/strided_slice/stack_2"], "attr": {"end_mask": {"i": "0"}, "ellipsis_mask": {"i": "0"}, "Index": {"type": "DT_INT32"}, "begin_mask": {"i": "0"}, "shrink_axis_mask": {"i": "1"}, "T": {"type": "DT_INT32"}, "new_axis_mask": {"i": "0"}}}, {"name": "StatefulPartitionedCall/mobilebert/sub", "op": "Sub", "input": ["StatefulPartitionedCall/mobilebert/sub/x", "StatefulPartitionedCall/mobilebert/Cast"], "attr": {"T": {"type": "DT_FLOAT"}}}, {"name": "StatefulPartitionedCall/mobilebert/embeddings/Pad", "op": "Pad", "input": ["StatefulPartitionedCall/mobilebert/embeddings/strided_slice_2", "StatefulPartitionedCall/mobilebert/embeddings/Pad/paddings"], "attr": {"T": {"type": "DT_FLOAT"}, "Tpaddings": {"type": "DT_INT32"}}}, {"name": "StatefulPartitionedCall/mobilebert/embeddings/Pad_1", "op": "Pad", "input": ["StatefulPartitionedCall/mobilebert/embeddings/strided_slice_3", "StatefulPartitionedCall/mobilebert/embeddings/Pad_1/paddings"], "attr": {"T": {"type": "DT_FLOAT"}, "Tpaddings": {"type": "DT_INT32"}}}, {"name": "StatefulPartitionedCall/mobilebert/embeddings/range", "op": "Range", "input": ["StatefulPartitionedCall/mobilebert/embeddings/range/start", "StatefulPartitionedCall/mobilebert/embeddings/strided_slice", "StatefulPartitionedCall/mobilebert/embeddings/range/delta"], "attr": {"Tidx": {"type": "DT_INT32"}}}, {"name": "StatefulPartitionedCall/mobilebert/Fill/dims", "op": "Pack", "input": ["StatefulPartitionedCall/mobilebert/Fill/dims/0", "StatefulPartitionedCall/mobilebert/strided_slice"], "attr": {"N": {"i": "2"}, "axis": {"i": "0"}, "T": {"type": "DT_INT32"}}}, {"name": "StatefulPartitionedCall/mobilebert/mul", "op": "Mul", "input": ["StatefulPartitionedCall/mobilebert/sub", "StatefulPartitionedCall/mobilebert/mul/y"], "attr": {"T": {"type": "DT_FLOAT"}}}, {"name": "StatefulPartitionedCall/mobilebert/embeddings/concat", "op": "ConcatV2", "input": ["StatefulPartitionedCall/mobilebert/embeddings/Pad", "StatefulPartitionedCall/mobilebert/embeddings/Gather", "StatefulPartitionedCall/mobilebert/embeddings/Pad_1", "StatefulPartitionedCall/mobilebert/embeddings/concat/axis"], "attr": {"N": {"i": "3"}, "T": {"type": "DT_FLOAT"}, "Tidx": {"type": "DT_INT32"}}}, {"name": "StatefulPartitionedCall/mobilebert/embeddings/strided_slice_1", "op": "StridedSlice", "input": ["StatefulPartitionedCall/mobilebert/embeddings/range", "StatefulPartitionedCall/mobilebert/embeddings/strided_slice_1/stack", "StatefulPartitionedCall/mobilebert/embeddings/strided_slice_1/stack_1", "StatefulPartitionedCall/mobilebert/embeddings/strided_slice_1/stack_2"], "attr": {"new_axis_mask": {"i": "1"}, "T": {"type": "DT_INT32"}, "shrink_axis_mask": {"i": "0"}, "ellipsis_mask": {"i": "0"}, "end_mask": {"i": "2"}, "begin_mask": {"i": "2"}, "Index": {"type": "DT_INT32"}}}, {"name": "StatefulPartitionedCall/mobilebert/Fill", "op": "Fill", "input": ["StatefulPartitionedCall/mobilebert/Fill/dims", "StatefulPartitionedCall/mobilebert/Fill/value"], "attr": {"T": {"type": "DT_INT32"}, "index_type": {"type": "DT_INT32"}}}, {"name": "StatefulPartitionedCall/mobilebert/embeddings/embedding_transformation/Tensordot/Shape", "op": "Shape", "input": ["StatefulPartitionedCall/mobilebert/embeddings/concat"], "attr": {"out_type": {"type": "DT_INT32"}, "T": {"type": "DT_FLOAT"}}}, {"name": "StatefulPartitionedCall/mobilebert/embeddings/position_embeddings/embedding_lookup", "op": "GatherV2", "input": ["unknown_2", "StatefulPartitionedCall/mobilebert/embeddings/strided_slice_1", "StatefulPartitionedCall/mobilebert/embeddings/position_embeddings/embedding_lookup/axis"], "attr": {"Tparams": {"type": "DT_FLOAT"}, "batch_dims": {"i": "0"}, "Tindices": {"type": "DT_INT32"}, "Taxis": {"type": "DT_INT32"}}}, {"name": "StatefulPartitionedCall/mobilebert/embeddings/token_type_embeddings/embedding_lookup", "op": "GatherV2", "input": ["unknown_3", "StatefulPartitionedCall/mobilebert/Fill", "StatefulPartitionedCall/mobilebert/embeddings/token_type_embeddings/embedding_lookup/axis"], "attr": {"Taxis": {"type": "DT_INT32"}, "Tindices": {"type": "DT_INT32"}, "Tparams": {"type": "DT_FLOAT"}, "batch_dims": {"i": "0"}}}, {"name": "StatefulPartitionedCall/mobilebert/embeddings/embedding_transformation/Tensordot/GatherV2_1", "op": "GatherV2", "input": ["StatefulPartitionedCall/mobilebert/embeddings/embedding_transformation/Tensordot/Shape", "StatefulPartitionedCall/mobilebert/embeddings/embedding_transformation/Tensordot/axes", "StatefulPartitionedCall/mobilebert/embeddings/embedding_transformation/Tensordot/GatherV2_1/axis"], "attr": {"batch_dims": {"i": "0"}, "Tindices": {"type": "DT_INT32"}, "Tparams": {"type": "DT_INT32"}, "Taxis": {"type": "DT_INT32"}}}, {"name": "StatefulPartitionedCall/mobilebert/embeddings/embedding_transformation/Tensordot/GatherV2", "op": "GatherV2", "input": ["StatefulPartitionedCall/mobilebert/embeddings/embedding_transformation/Tensordot/Shape", "StatefulPartitionedCall/mobilebert/embeddings/embedding_transformation/Tensordot/free", "StatefulPartitionedCall/mobilebert/embeddings/embedding_transformation/Tensordot/GatherV2/axis"], "attr": {"Tindices": {"type": "DT_INT32"}, "Taxis": {"type": "DT_INT32"}, "Tparams": {"type": "DT_INT32"}, "batch_dims": {"i": "0"}}}, {"name": "StatefulPartitionedCall/mobilebert/embeddings/embedding_transformation/Tensordot/Prod_1", "op": "Prod", "input": ["StatefulPartitionedCall/mobilebert/embeddings/embedding_transformation/Tensordot/GatherV2_1", "StatefulPartitionedCall/mobilebert/embeddings/embedding_transformation/Tensordot/Const_1"], "attr": {"keep_dims": {"b": false}, "T": {"type": "DT_INT32"}, "Tidx": {"type": "DT_INT32"}}}, {"name": "StatefulPartitionedCall/mobilebert/embeddings/embedding_transformation/Tensordot/Prod", "op": "Prod", "input": ["StatefulPartitionedCall/mobilebert/embeddings/embedding_transformation/Tensordot/GatherV2", "StatefulPartitionedCall/mobilebert/embeddings/embedding_transformation/Tensordot/Const"], "attr": {"T": {"type": "DT_INT32"}, "Tidx": {"type": "DT_INT32"}, "keep_dims": {"b": false}}}, {"name": "StatefulPartitionedCall/mobilebert/embeddings/embedding_transformation/Tensordot/concat_1", "op": "ConcatV2", "input": ["StatefulPartitionedCall/mobilebert/embeddings/embedding_transformation/Tensordot/GatherV2", "StatefulPartitionedCall/mobilebert/embeddings/embedding_transformation/Tensordot/Const_2", "StatefulPartitionedCall/mobilebert/embeddings/embedding_transformation/Tensordot/concat_1/axis"], "attr": {"Tidx": {"type": "DT_INT32"}, "T": {"type": "DT_INT32"}, "N": {"i": "2"}}}, {"name": "StatefulPartitionedCall/mobilebert/embeddings/embedding_transformation/Tensordot/stack", "op": "Pack", "input": ["StatefulPartitionedCall/mobilebert/embeddings/embedding_transformation/Tensordot/Prod", "StatefulPartitionedCall/mobilebert/embeddings/embedding_transformation/Tensordot/Prod_1"], "attr": {"axis": {"i": "0"}, "T": {"type": "DT_INT32"}, "N": {"i": "2"}}}, {"name": "StatefulPartitionedCall/mobilebert/embeddings/embedding_transformation/Tensordot/Reshape", "op": "Reshape", "input": ["StatefulPartitionedCall/mobilebert/embeddings/concat", "StatefulPartitionedCall/mobilebert/embeddings/embedding_transformation/Tensordot/stack"], "attr": {"T": {"type": "DT_FLOAT"}, "Tshape": {"type": "DT_INT32"}}}, {"name": "StatefulPartitionedCall/mobilebert/embeddings/embedding_transformation/Tensordot/MatMul", "op": "MatMul", "input": ["StatefulPartitionedCall/mobilebert/embeddings/embedding_transformation/Tensordot/Reshape", "unknown_0"], "device": "/device:CPU:0", "attr": {"transpose_b": {"b": false}, "T": {"type": "DT_FLOAT"}, "transpose_a": {"b": false}}}, {"name": "StatefulPartitionedCall/mobilebert/embeddings/embedding_transformation/Tensordot", "op": "Reshape", "input": ["StatefulPartitionedCall/mobilebert/embeddings/embedding_transformation/Tensordot/MatMul", "StatefulPartitionedCall/mobilebert/embeddings/embedding_transformation/Tensordot/concat_1"], "attr": {"T": {"type": "DT_FLOAT"}, "Tshape": {"type": "DT_INT32"}}}, {"name": "StatefulPartitionedCall/mobilebert/embeddings/embedding_transformation/BiasAdd", "op": "BiasAdd", "input": ["StatefulPartitionedCall/mobilebert/embeddings/embedding_transformation/Tensordot", "unknown_1"], "attr": {"data_format": {"s": "TkhXQw=="}, "T": {"type": "DT_FLOAT"}}}, {"name": "StatefulPartitionedCall/mobilebert/embeddings/add", "op": "AddV2", "input": ["StatefulPartitionedCall/mobilebert/embeddings/embedding_transformation/BiasAdd", "StatefulPartitionedCall/mobilebert/embeddings/position_embeddings/embedding_lookup"], "attr": {"T": {"type": "DT_FLOAT"}}}, {"name": "StatefulPartitionedCall/mobilebert/embeddings/add_1", "op": "AddV2", "input": ["StatefulPartitionedCall/mobilebert/embeddings/add", "StatefulPartitionedCall/mobilebert/embeddings/token_type_embeddings/embedding_lookup"], "attr": {"T": {"type": "DT_FLOAT"}}}, {"name": "StatefulPartitionedCall/mobilebert/embeddings/LayerNorm/mul", "op": "Mul", "input": ["StatefulPartitionedCall/mobilebert/embeddings/add_1", "unknown_4"], "attr": {"T": {"type": "DT_FLOAT"}}}, {"name": "StatefulPartitionedCall/mobilebert/embeddings/LayerNorm/add", "op": "AddV2", "input": ["StatefulPartitionedCall/mobilebert/embeddings/LayerNorm/mul", "unknown_5"], "attr": {"T": {"type": "DT_FLOAT"}}}, {"name": "StatefulPartitionedCall/mobilebert/encoder/layer_._0/bottleneck/attention/dense/Tensordot/Shape", "op": "Shape", "input": ["StatefulPartitionedCall/mobilebert/embeddings/LayerNorm/add"], "attr": {"T": {"type": "DT_FLOAT"}, "out_type": {"type": "DT_INT32"}}}, {"name": "StatefulPartitionedCall/mobilebert/encoder/layer_._0/attention/self/value/Tensordot/Shape", "op": "Shape", "input": ["StatefulPartitionedCall/mobilebert/embeddings/LayerNorm/add"], "attr": {"out_type": {"type": "DT_INT32"}, "T": {"type": "DT_FLOAT"}}}, {"name": "StatefulPartitionedCall/mobilebert/encoder/layer_._0/bottleneck/input/dense/Tensordot/Shape", "op": "Shape", "input": ["StatefulPartitionedCall/mobilebert/embeddings/LayerNorm/add"], "attr": {"T": {"type": "DT_FLOAT"}, "out_type": {"type": "DT_INT32"}}}, {"name": "StatefulPartitionedCall/mobilebert/encoder/layer_._0/bottleneck/attention/dense/Tensordot/GatherV2_1", "op": "GatherV2", "input": ["StatefulPartitionedCall/mobilebert/encoder/layer_._0/bottleneck/attention/dense/Tensordot/Shape", "StatefulPartitionedCall/mobilebert/encoder/layer_._0/bottleneck/attention/dense/Tensordot/axes", "StatefulPartitionedCall/mobilebert/encoder/layer_._0/bottleneck/attention/dense/Tensordot/GatherV2_1/axis"], "attr": {"batch_dims": {"i": "0"}, "Taxis": {"type": "DT_INT32"}, "Tparams": {"type": "DT_INT32"}, "Tindices": {"type": "DT_INT32"}}}, {"name": "StatefulPartitionedCall/mobilebert/encoder/layer_._0/bottleneck/attention/dense/Tensordot/GatherV2", "op": "GatherV2", "input": ["StatefulPartitionedCall/mobilebert/encoder/layer_._0/bottleneck/attention/dense/Tensordot/Shape", "StatefulPartitionedCall/mobilebert/encoder/layer_._0/bottleneck/attention/dense/Tensordot/free", "StatefulPartitionedCall/mobilebert/encoder/layer_._0/bottleneck/attention/dense/Tensordot/GatherV2/axis"], "attr": {"Taxis": {"type": "DT_INT32"}, "Tparams": {"type": "DT_INT32"}, "batch_dims": {"i": "0"}, "Tindices": {"type": "DT_INT32"}}}, {"name": "StatefulPartitionedCall/mobilebert/encoder/layer_._0/attention/self/value/Tensordot/GatherV2_1", "op": "GatherV2", "input": ["StatefulPartitionedCall/mobilebert/encoder/layer_._0/attention/self/value/Tensordot/Shape", "StatefulPartitionedCall/mobilebert/encoder/layer_._0/attention/self/value/Tensordot/axes", "StatefulPartitionedCall/mobilebert/encoder/layer_._0/attention/self/value/Tensordot/GatherV2_1/axis"], "attr": {"Taxis": {"type": "DT_INT32"}, "batch_dims": {"i": "0"}, "Tindices": {"type": "DT_INT32"}, "Tparams": {"type": "DT_INT32"}}}, {"name": "StatefulPartitionedCall/mobilebert/encoder/layer_._0/attention/self/value/Tensordot/GatherV2", "op": "GatherV2", "input": ["StatefulPartitionedCall/mobilebert/encoder/layer_._0/attention/self/value/Tensordot/Shape", "StatefulPartitionedCall/mobilebert/encoder/layer_._0/attention/self/value/Tensordot/free", "StatefulPartitionedCall/mobilebert/encoder/layer_._0/attention/self/value/Tensordot/GatherV2/axis"], "attr": {"Tindices": {"type": "DT_INT32"}, "Taxis": {"type": "DT_INT32"}, "Tparams": {"type": "DT_INT32"}, "batch_dims": {"i": "0"}}}, {"name": "StatefulPartitionedCall/mobilebert/encoder/layer_._0/bottleneck/input/dense/Tensordot/GatherV2_1", "op": "GatherV2", "input": ["StatefulPartitionedCall/mobilebert/encoder/layer_._0/bottleneck/input/dense/Tensordot/Shape", "StatefulPartitionedCall/mobilebert/encoder/layer_._0/bottleneck/input/dense/Tensordot/axes", "StatefulPartitionedCall/mobilebert/encoder/layer_._0/bottleneck/input/dense/Tensordot/GatherV2_1/axis"], "attr": {"Tparams": {"type": "DT_INT32"}, "Tindices": {"type": "DT_INT32"}, "batch_dims": {"i": "0"}, "Taxis": {"type": "DT_INT32"}}}, {"name": "StatefulPartitionedCall/mobilebert/encoder/layer_._0/bottleneck/input/dense/Tensordot/GatherV2", "op": "GatherV2", "input": ["StatefulPartitionedCall/mobilebert/encoder/layer_._0/bottleneck/input/dense/Tensordot/Shape", "StatefulPartitionedCall/mobilebert/encoder/layer_._0/bottleneck/input/dense/Tensordot/free", "StatefulPartitionedCall/mobilebert/encoder/layer_._0/bottleneck/input/dense/Tensordot/GatherV2/axis"], "attr": {"Tparams": {"type": "DT_INT32"}, "Taxis": {"type": "DT_INT32"}, "batch_dims": {"i": "0"}, "Tindices": {"type": "DT_INT32"}}}, {"name": "StatefulPartitionedCall/mobilebert/encoder/layer_._0/bottleneck/attention/dense/Tensordot/Prod_1", "op": "Prod", "input": ["StatefulPartitionedCall/mobilebert/encoder/layer_._0/bottleneck/attention/dense/Tensordot/GatherV2_1", "StatefulPartitionedCall/mobilebert/encoder/layer_._0/bottleneck/attention/dense/Tensordot/Const_1"], "attr": {"T": {"type": "DT_INT32"}, "keep_dims": {"b": false}, "Tidx": {"type": "DT_INT32"}}}, {"name": "StatefulPartitionedCall/mobilebert/encoder/layer_._0/bottleneck/attention/dense/Tensordot/Prod", "op": "Prod", "input": ["StatefulPartitionedCall/mobilebert/encoder/layer_._0/bottleneck/attention/dense/Tensordot/GatherV2", "StatefulPartitionedCall/mobilebert/encoder/layer_._0/bottleneck/attention/dense/Tensordot/Const"], "attr": {"Tidx": {"type": "DT_INT32"}, "T": {"type": "DT_INT32"}, "keep_dims": {"b": false}}}, {"name": "StatefulPartitionedCall/mobilebert/encoder/layer_._0/bottleneck/attention/dense/Tensordot/concat_1", "op": "ConcatV2", "input": ["StatefulPartitionedCall/mobilebert/encoder/layer_._0/bottleneck/attention/dense/Tensordot/GatherV2", "StatefulPartitionedCall/mobilebert/encoder/layer_._0/bottleneck/attention/dense/Tensordot/Const_2", "StatefulPartitionedCall/mobilebert/encoder/layer_._0/bottleneck/attention/dense/Tensordot/concat_1/axis"], "attr": {"N": {"i": "2"}, "T": {"type": "DT_INT32"}, "Tidx": {"type": "DT_INT32"}}}, {"name": "StatefulPartitionedCall/mobilebert/encoder/layer_._0/attention/self/value/Tensordot/Prod_1", "op": "Prod", "input": ["StatefulPartitionedCall/mobilebert/encoder/layer_._0/attention/self/value/Tensordot/GatherV2_1", "StatefulPartitionedCall/mobilebert/encoder/layer_._0/attention/self/value/Tensordot/Const_1"], "attr": {"T": {"type": "DT_INT32"}, "keep_dims": {"b": false}, "Tidx": {"type": "DT_INT32"}}}, {"name": "StatefulPartitionedCall/mobilebert/encoder/layer_._0/attention/self/value/Tensordot/Prod", "op": "Prod", "input": ["StatefulPartitionedCall/mobilebert/encoder/layer_._0/attention/self/value/Tensordot/GatherV2", "StatefulPartitionedCall/mobilebert/encoder/layer_._0/attention/self/value/Tensordot/Const"], "attr": {"T": {"type": "DT_INT32"}, "Tidx": {"type": "DT_INT32"}, "keep_dims": {"b": false}}}, {"name": "StatefulPartitionedCall/mobilebert/encoder/layer_._0/attention/self/value/Tensordot/concat_1", "op": "ConcatV2", "input": ["StatefulPartitionedCall/mobilebert/encoder/layer_._0/attention/self/value/Tensordot/GatherV2", "StatefulPartitionedCall/mobilebert/encoder/layer_._0/attention/self/value/Tensordot/Const_2", "StatefulPartitionedCall/mobilebert/encoder/layer_._0/attention/self/value/Tensordot/concat_1/axis"], "attr": {"T": {"type": "DT_INT32"}, "N": {"i": "2"}, "Tidx": {"type": "DT_INT32"}}}, {"name": "StatefulPartitionedCall/mobilebert/encoder/layer_._0/bottleneck/input/dense/Tensordot/Prod_1", "op": "Prod", "input": ["StatefulPartitionedCall/mobilebert/encoder/layer_._0/bottleneck/input/dense/Tensordot/GatherV2_1", "StatefulPartitionedCall/mobilebert/encoder/layer_._0/bottleneck/input/dense/Tensordot/Const_1"], "attr": {"T": {"type": "DT_INT32"}, "Tidx": {"type": "DT_INT32"}, "keep_dims": {"b": false}}}, {"name": "StatefulPartitionedCall/mobilebert/encoder/layer_._0/bottleneck/input/dense/Tensordot/Prod", "op": "Prod", "input": ["StatefulPartitionedCall/mobilebert/encoder/layer_._0/bottleneck/input/dense/Tensordot/GatherV2", "StatefulPartitionedCall/mobilebert/encoder/layer_._0/bottleneck/input/dense/Tensordot/Const"], "attr": {"T": {"type": "DT_INT32"}, "keep_dims": {"b": false}, "Tidx": {"type": "DT_INT32"}}}, {"name": "StatefulPartitionedCall/mobilebert/encoder/layer_._0/bottleneck/input/dense/Tensordot/concat_1", "op": "ConcatV2", "input": ["StatefulPartitionedCall/mobilebert/encoder/layer_._0/bottleneck/input/dense/Tensordot/GatherV2", "StatefulPartitionedCall/mobilebert/encoder/layer_._0/bottleneck/input/dense/Tensordot/Const_2", "StatefulPartitionedCall/mobilebert/encoder/layer_._0/bottleneck/input/dense/Tensordot/concat_1/axis"], "attr": {"Tidx": {"type": "DT_INT32"}, "T": {"type": "DT_INT32"}, "N": {"i": "2"}}}, {"name": "StatefulPartitionedCall/mobilebert/encoder/layer_._0/bottleneck/attention/dense/Tensordot/stack", "op": "Pack", "input": ["StatefulPartitionedCall/mobilebert/encoder/layer_._0/bottleneck/attention/dense/Tensordot/Prod", "StatefulPartitionedCall/mobilebert/encoder/layer_._0/bottleneck/attention/dense/Tensordot/Prod_1"], "attr": {"T": {"type": "DT_INT32"}, "N": {"i": "2"}, "axis": {"i": "0"}}}, {"name": "StatefulPartitionedCall/mobilebert/encoder/layer_._0/attention/self/value/Tensordot/stack", "op": "Pack", "input": ["StatefulPartitionedCall/mobilebert/encoder/layer_._0/attention/self/value/Tensordot/Prod", "StatefulPartitionedCall/mobilebert/encoder/layer_._0/attention/self/value/Tensordot/Prod_1"], "attr": {"axis": {"i": "0"}, "N": {"i": "2"}, "T": {"type": "DT_INT32"}}}, {"name": "StatefulPartitionedCall/mobilebert/encoder/layer_._0/bottleneck/input/dense/Tensordot/stack", "op": "Pack", "input": ["StatefulPartitionedCall/mobilebert/encoder/layer_._0/bottleneck/input/dense/Tensordot/Prod", "StatefulPartitionedCall/mobilebert/encoder/layer_._0/bottleneck/input/dense/Tensordot/Prod_1"], "attr": {"N": {"i": "2"}, "axis": {"i": "0"}, "T": {"type": "DT_INT32"}}}, {"name": "StatefulPartitionedCall/mobilebert/encoder/layer_._0/bottleneck/attention/dense/Tensordot/Reshape", "op": "Reshape", "input": ["StatefulPartitionedCall/mobilebert/embeddings/LayerNorm/add", "StatefulPartitionedCall/mobilebert/encoder/layer_._0/bottleneck/attention/dense/Tensordot/stack"], "attr": {"Tshape": {"type": "DT_INT32"}, "T": {"type": "DT_FLOAT"}}}, {"name": "StatefulPartitionedCall/mobilebert/encoder/layer_._0/attention/self/value/Tensordot/Reshape", "op": "Reshape", "input": ["StatefulPartitionedCall/mobilebert/embeddings/LayerNorm/add", "StatefulPartitionedCall/mobilebert/encoder/layer_._0/attention/self/value/Tensordot/stack"], "attr": {"T": {"type": "DT_FLOAT"}, "Tshape": {"type": "DT_INT32"}}}, {"name": "StatefulPartitionedCall/mobilebert/encoder/layer_._0/bottleneck/input/dense/Tensordot/Reshape", "op": "Reshape", "input": ["StatefulPartitionedCall/mobilebert/embeddings/LayerNorm/add", "StatefulPartitionedCall/mobilebert/encoder/layer_._0/bottleneck/input/dense/Tensordot/stack"], "attr": {"T": {"type": "DT_FLOAT"}, "Tshape": {"type": "DT_INT32"}}}, {"name": "StatefulPartitionedCall/mobilebert/encoder/layer_._0/bottleneck/attention/dense/Tensordot/MatMul", "op": "MatMul", "input": ["StatefulPartitionedCall/mobilebert/encoder/layer_._0/bottleneck/attention/dense/Tensordot/Reshape", "unknown_10"], "device": "/device:CPU:0", "attr": {"T": {"type": "DT_FLOAT"}, "transpose_a": {"b": false}, "transpose_b": {"b": false}}}, {"name": "StatefulPartitionedCall/mobilebert/encoder/layer_._0/attention/self/value/Tensordot/MatMul", "op": "MatMul", "input": ["StatefulPartitionedCall/mobilebert/encoder/layer_._0/attention/self/value/Tensordot/Reshape", "unknown_18"], "device": "/device:CPU:0", "attr": {"transpose_b": {"b": false}, "T": {"type": "DT_FLOAT"}, "transpose_a": {"b": false}}}, {"name": "StatefulPartitionedCall/mobilebert/encoder/layer_._0/bottleneck/input/dense/Tensordot/MatMul", "op": "MatMul", "input": ["StatefulPartitionedCall/mobilebert/encoder/layer_._0/bottleneck/input/dense/Tensordot/Reshape", "unknown_6"], "device": "/device:CPU:0", "attr": {"transpose_a": {"b": false}, "transpose_b": {"b": false}, "T": {"type": "DT_FLOAT"}}}, {"name": "StatefulPartitionedCall/mobilebert/encoder/layer_._0/bottleneck/attention/dense/Tensordot", "op": "Reshape", "input": ["StatefulPartitionedCall/mobilebert/encoder/layer_._0/bottleneck/attention/dense/Tensordot/MatMul", "StatefulPartitionedCall/mobilebert/encoder/layer_._0/bottleneck/attention/dense/Tensordot/concat_1"], "attr": {"T": {"type": "DT_FLOAT"}, "Tshape": {"type": "DT_INT32"}}}, {"name": "StatefulPartitionedCall/mobilebert/encoder/layer_._0/attention/self/value/Tensordot", "op": "Reshape", "input": ["StatefulPartitionedCall/mobilebert/encoder/layer_._0/attention/self/value/Tensordot/MatMul", "StatefulPartitionedCall/mobilebert/encoder/layer_._0/attention/self/value/Tensordot/concat_1"], "attr": {"T": {"type": "DT_FLOAT"}, "Tshape": {"type": "DT_INT32"}}}, {"name": "StatefulPartitionedCall/mobilebert/encoder/layer_._0/bottleneck/input/dense/Tensordot", "op": "Reshape", "input": ["StatefulPartitionedCall/mobilebert/encoder/layer_._0/bottleneck/input/dense/Tensordot/MatMul", "StatefulPartitionedCall/mobilebert/encoder/layer_._0/bottleneck/input/dense/Tensordot/concat_1"], "attr": {"T": {"type": "DT_FLOAT"}, "Tshape": {"type": "DT_INT32"}}}, {"name": "StatefulPartitionedCall/mobilebert/encoder/layer_._0/bottleneck/attention/dense/BiasAdd", "op": "BiasAdd", "input": ["StatefulPartitionedCall/mobilebert/encoder/layer_._0/bottleneck/attention/dense/Tensordot", "unknown_11"], "attr": {"data_format": {"s": "TkhXQw=="}, "T": {"type": "DT_FLOAT"}}}, {"name": "StatefulPartitionedCall/mobilebert/encoder/layer_._0/attention/self/value/BiasAdd", "op": "BiasAdd", "input": ["StatefulPartitionedCall/mobilebert/encoder/layer_._0/attention/self/value/Tensordot", "unknown_19"], "attr": {"data_format": {"s": "TkhXQw=="}, "T": {"type": "DT_FLOAT"}}}, {"name": "StatefulPartitionedCall/mobilebert/encoder/layer_._0/bottleneck/input/dense/BiasAdd", "op": "BiasAdd", "input": ["StatefulPartitionedCall/mobilebert/encoder/layer_._0/bottleneck/input/dense/Tensordot", "unknown_7"], "attr": {"data_format": {"s": "TkhXQw=="}, "T": {"type": "DT_FLOAT"}}}, {"name": "StatefulPartitionedCall/mobilebert/encoder/layer_._0/bottleneck/attention/LayerNorm/mul", "op": "Mul", "input": ["StatefulPartitionedCall/mobilebert/encoder/layer_._0/bottleneck/attention/dense/BiasAdd", "unknown_12"], "attr": {"T": {"type": "DT_FLOAT"}}}, {"name": "StatefulPartitionedCall/mobilebert/encoder/layer_._0/attention/self/Reshape_2", "op": "Reshape", "input": ["StatefulPartitionedCall/mobilebert/encoder/layer_._0/attention/self/value/BiasAdd", "StatefulPartitionedCall/mobilebert/encoder/layer_._0/attention/self/Reshape_2/shape"], "attr": {"Tshape": {"type": "DT_INT32"}, "T": {"type": "DT_FLOAT"}}}, {"name": "StatefulPartitionedCall/mobilebert/encoder/layer_._0/bottleneck/input/LayerNorm/mul", "op": "Mul", "input": ["StatefulPartitionedCall/mobilebert/encoder/layer_._0/bottleneck/input/dense/BiasAdd", "unknown_8"], "attr": {"T": {"type": "DT_FLOAT"}}}, {"name": "StatefulPartitionedCall/mobilebert/encoder/layer_._0/bottleneck/attention/LayerNorm/add", "op": "AddV2", "input": ["StatefulPartitionedCall/mobilebert/encoder/layer_._0/bottleneck/attention/LayerNorm/mul", "unknown_13"], "attr": {"T": {"type": "DT_FLOAT"}}}, {"name": "StatefulPartitionedCall/mobilebert/encoder/layer_._0/attention/self/transpose_2", "op": "Transpose", "input": ["StatefulPartitionedCall/mobilebert/encoder/layer_._0/attention/self/Reshape_2", "StatefulPartitionedCall/mobilebert/encoder/layer_._0/attention/self/transpose_2/perm"], "attr": {"T": {"type": "DT_FLOAT"}, "Tperm": {"type": "DT_INT32"}}}, {"name": "StatefulPartitionedCall/mobilebert/encoder/layer_._0/bottleneck/input/LayerNorm/add", "op": "AddV2", "input": ["StatefulPartitionedCall/mobilebert/encoder/layer_._0/bottleneck/input/LayerNorm/mul", "unknown_9"], "attr": {"T": {"type": "DT_FLOAT"}}}, {"name": "StatefulPartitionedCall/mobilebert/encoder/layer_._0/attention/self/query/Tensordot/Shape", "op": "Shape", "input": ["StatefulPartitionedCall/mobilebert/encoder/layer_._0/bottleneck/attention/LayerNorm/add"], "attr": {"T": {"type": "DT_FLOAT"}, "out_type": {"type": "DT_INT32"}}}, {"name": "StatefulPartitionedCall/mobilebert/encoder/layer_._0/attention/self/key/Tensordot/Shape", "op": "Shape", "input": ["StatefulPartitionedCall/mobilebert/encoder/layer_._0/bottleneck/attention/LayerNorm/add"], "attr": {"out_type": {"type": "DT_INT32"}, "T": {"type": "DT_FLOAT"}}}, {"name": "StatefulPartitionedCall/mobilebert/encoder/layer_._0/attention/self/query/Tensordot/GatherV2_1", "op": "GatherV2", "input": ["StatefulPartitionedCall/mobilebert/encoder/layer_._0/attention/self/query/Tensordot/Shape", "StatefulPartitionedCall/mobilebert/encoder/layer_._0/attention/self/query/Tensordot/axes", "StatefulPartitionedCall/mobilebert/encoder/layer_._0/attention/self/query/Tensordot/GatherV2_1/axis"], "attr": {"Tindices": {"type": "DT_INT32"}, "batch_dims": {"i": "0"}, "Taxis": {"type": "DT_INT32"}, "Tparams": {"type": "DT_INT32"}}}, {"name": "StatefulPartitionedCall/mobilebert/encoder/layer_._0/attention/self/query/Tensordot/GatherV2", "op": "GatherV2", "input": ["StatefulPartitionedCall/mobilebert/encoder/layer_._0/attention/self/query/Tensordot/Shape", "StatefulPartitionedCall/mobilebert/encoder/layer_._0/attention/self/query/Tensordot/free", "StatefulPartitionedCall/mobilebert/encoder/layer_._0/attention/self/query/Tensordot/GatherV2/axis"], "attr": {"Taxis": {"type": "DT_INT32"}, "Tparams": {"type": "DT_INT32"}, "batch_dims": {"i": "0"}, "Tindices": {"type": "DT_INT32"}}}, {"name": "StatefulPartitionedCall/mobilebert/encoder/layer_._0/attention/self/key/Tensordot/GatherV2_1", "op": "GatherV2", "input": ["StatefulPartitionedCall/mobilebert/encoder/layer_._0/attention/self/key/Tensordot/Shape", "StatefulPartitionedCall/mobilebert/encoder/layer_._0/attention/self/key/Tensordot/axes", "StatefulPartitionedCall/mobilebert/encoder/layer_._0/attention/self/key/Tensordot/GatherV2_1/axis"], "attr": {"Tindices": {"type": "DT_INT32"}, "Taxis": {"type": "DT_INT32"}, "Tparams": {"type": "DT_INT32"}, "batch_dims": {"i": "0"}}}, {"name": "StatefulPartitionedCall/mobilebert/encoder/layer_._0/attention/self/key/Tensordot/GatherV2", "op": "GatherV2", "input": ["StatefulPartitionedCall/mobilebert/encoder/layer_._0/attention/self/key/Tensordot/Shape", "StatefulPartitionedCall/mobilebert/encoder/layer_._0/attention/self/key/Tensordot/free", "StatefulPartitionedCall/mobilebert/encoder/layer_._0/attention/self/key/Tensordot/GatherV2/axis"], "attr": {"Taxis": {"type": "DT_INT32"}, "Tparams": {"type": "DT_INT32"}, "batch_dims": {"i": "0"}, "Tindices": {"type": "DT_INT32"}}}, {"name": "StatefulPartitionedCall/mobilebert/encoder/layer_._0/attention/self/query/Tensordot/Prod_1", "op": "Prod", "input": ["StatefulPartitionedCall/mobilebert/encoder/layer_._0/attention/self/query/Tensordot/GatherV2_1", "StatefulPartitionedCall/mobilebert/encoder/layer_._0/attention/self/query/Tensordot/Const_1"], "attr": {"Tidx": {"type": "DT_INT32"}, "keep_dims": {"b": false}, "T": {"type": "DT_INT32"}}}, {"name": "StatefulPartitionedCall/mobilebert/encoder/layer_._0/attention/self/query/Tensordot/Prod", "op": "Prod", "input": ["StatefulPartitionedCall/mobilebert/encoder/layer_._0/attention/self/query/Tensordot/GatherV2", "StatefulPartitionedCall/mobilebert/encoder/layer_._0/attention/self/query/Tensordot/Const"], "attr": {"T": {"type": "DT_INT32"}, "keep_dims": {"b": false}, "Tidx": {"type": "DT_INT32"}}}, {"name": "StatefulPartitionedCall/mobilebert/encoder/layer_._0/attention/self/query/Tensordot/concat_1", "op": "ConcatV2", "input": ["StatefulPartitionedCall/mobilebert/encoder/layer_._0/attention/self/query/Tensordot/GatherV2", "StatefulPartitionedCall/mobilebert/encoder/layer_._0/attention/self/query/Tensordot/Const_2", "StatefulPartitionedCall/mobilebert/encoder/layer_._0/attention/self/query/Tensordot/concat_1/axis"], "attr": {"T": {"type": "DT_INT32"}, "Tidx": {"type": "DT_INT32"}, "N": {"i": "2"}}}, {"name": "StatefulPartitionedCall/mobilebert/encoder/layer_._0/attention/self/key/Tensordot/Prod_1", "op": "Prod", "input": ["StatefulPartitionedCall/mobilebert/encoder/layer_._0/attention/self/key/Tensordot/GatherV2_1", "StatefulPartitionedCall/mobilebert/encoder/layer_._0/attention/self/key/Tensordot/Const_1"], "attr": {"Tidx": {"type": "DT_INT32"}, "keep_dims": {"b": false}, "T": {"type": "DT_INT32"}}}, {"name": "StatefulPartitionedCall/mobilebert/encoder/layer_._0/attention/self/key/Tensordot/Prod", "op": "Prod", "input": ["StatefulPartitionedCall/mobilebert/encoder/layer_._0/attention/self/key/Tensordot/GatherV2", "StatefulPartitionedCall/mobilebert/encoder/layer_._0/attention/self/key/Tensordot/Const"], "attr": {"keep_dims": {"b": false}, "Tidx": {"type": "DT_INT32"}, "T": {"type": "DT_INT32"}}}, {"name": "StatefulPartitionedCall/mobilebert/encoder/layer_._0/attention/self/key/Tensordot/concat_1", "op": "ConcatV2", "input": ["StatefulPartitionedCall/mobilebert/encoder/layer_._0/attention/self/key/Tensordot/GatherV2", "StatefulPartitionedCall/mobilebert/encoder/layer_._0/attention/self/key/Tensordot/Const_2", "StatefulPartitionedCall/mobilebert/encoder/layer_._0/attention/self/key/Tensordot/concat_1/axis"], "attr": {"Tidx": {"type": "DT_INT32"}, "N": {"i": "2"}, "T": {"type": "DT_INT32"}}}, {"name": "StatefulPartitionedCall/mobilebert/encoder/layer_._0/attention/self/query/Tensordot/stack", "op": "Pack", "input": ["StatefulPartitionedCall/mobilebert/encoder/layer_._0/attention/self/query/Tensordot/Prod", "StatefulPartitionedCall/mobilebert/encoder/layer_._0/attention/self/query/Tensordot/Prod_1"], "attr": {"axis": {"i": "0"}, "T": {"type": "DT_INT32"}, "N": {"i": "2"}}}, {"name": "StatefulPartitionedCall/mobilebert/encoder/layer_._0/attention/self/key/Tensordot/stack", "op": "Pack", "input": ["StatefulPartitionedCall/mobilebert/encoder/layer_._0/attention/self/key/Tensordot/Prod", "StatefulPartitionedCall/mobilebert/encoder/layer_._0/attention/self/key/Tensordot/Prod_1"], "attr": {"N": {"i": "2"}, "axis": {"i": "0"}, "T": {"type": "DT_INT32"}}}, {"name": "StatefulPartitionedCall/mobilebert/encoder/layer_._0/attention/self/query/Tensordot/Reshape", "op": "Reshape", "input": ["StatefulPartitionedCall/mobilebert/encoder/layer_._0/bottleneck/attention/LayerNorm/add", "StatefulPartitionedCall/mobilebert/encoder/layer_._0/attention/self/query/Tensordot/stack"], "attr": {"Tshape": {"type": "DT_INT32"}, "T": {"type": "DT_FLOAT"}}}, {"name": "StatefulPartitionedCall/mobilebert/encoder/layer_._0/attention/self/key/Tensordot/Reshape", "op": "Reshape", "input": ["StatefulPartitionedCall/mobilebert/encoder/layer_._0/bottleneck/attention/LayerNorm/add", "StatefulPartitionedCall/mobilebert/encoder/layer_._0/attention/self/key/Tensordot/stack"], "attr": {"Tshape": {"type": "DT_INT32"}, "T": {"type": "DT_FLOAT"}}}, {"name": "StatefulPartitionedCall/mobilebert/encoder/layer_._0/attention/self/query/Tensordot/MatMul", "op": "MatMul", "input": ["StatefulPartitionedCall/mobilebert/encoder/layer_._0/attention/self/query/Tensordot/Reshape", "unknown_14"], "device": "/device:CPU:0", "attr": {"transpose_b": {"b": false}, "T": {"type": "DT_FLOAT"}, "transpose_a": {"b": false}}}, {"name": "StatefulPartitionedCall/mobilebert/encoder/layer_._0/attention/self/key/Tensordot/MatMul", "op": "MatMul", "input": ["StatefulPartitionedCall/mobilebert/encoder/layer_._0/attention/self/key/Tensordot/Reshape", "unknown_16"], "device": "/device:CPU:0", "attr": {"transpose_b": {"b": false}, "T": {"type": "DT_FLOAT"}, "transpose_a": {"b": false}}}, {"name": "StatefulPartitionedCall/mobilebert/encoder/layer_._0/attention/self/query/Tensordot", "op": "Reshape", "input": ["StatefulPartitionedCall/mobilebert/encoder/layer_._0/attention/self/query/Tensordot/MatMul", "StatefulPartitionedCall/mobilebert/encoder/layer_._0/attention/self/query/Tensordot/concat_1"], "attr": {"Tshape": {"type": "DT_INT32"}, "T": {"type": "DT_FLOAT"}}}, {"name": "StatefulPartitionedCall/mobilebert/encoder/layer_._0/attention/self/key/Tensordot", "op": "Reshape", "input": ["StatefulPartitionedCall/mobilebert/encoder/layer_._0/attention/self/key/Tensordot/MatMul", "StatefulPartitionedCall/mobilebert/encoder/layer_._0/attention/self/key/Tensordot/concat_1"], "attr": {"T": {"type": "DT_FLOAT"}, "Tshape": {"type": "DT_INT32"}}}, {"name": "StatefulPartitionedCall/mobilebert/encoder/layer_._0/attention/self/query/BiasAdd", "op": "BiasAdd", "input": ["StatefulPartitionedCall/mobilebert/encoder/layer_._0/attention/self/query/Tensordot", "unknown_15"], "attr": {"data_format": {"s": "TkhXQw=="}, "T": {"type": "DT_FLOAT"}}}, {"name": "StatefulPartitionedCall/mobilebert/encoder/layer_._0/attention/self/key/BiasAdd", "op": "BiasAdd", "input": ["StatefulPartitionedCall/mobilebert/encoder/layer_._0/attention/self/key/Tensordot", "unknown_17"], "attr": {"T": {"type": "DT_FLOAT"}, "data_format": {"s": "TkhXQw=="}}}, {"name": "StatefulPartitionedCall/mobilebert/encoder/layer_._0/attention/self/Reshape", "op": "Reshape", "input": ["StatefulPartitionedCall/mobilebert/encoder/layer_._0/attention/self/query/BiasAdd", "StatefulPartitionedCall/mobilebert/encoder/layer_._0/attention/self/Reshape/shape"], "attr": {"T": {"type": "DT_FLOAT"}, "Tshape": {"type": "DT_INT32"}}}, {"name": "StatefulPartitionedCall/mobilebert/encoder/layer_._0/attention/self/Reshape_1", "op": "Reshape", "input": ["StatefulPartitionedCall/mobilebert/encoder/layer_._0/attention/self/key/BiasAdd", "StatefulPartitionedCall/mobilebert/encoder/layer_._0/attention/self/Reshape_1/shape"], "attr": {"Tshape": {"type": "DT_INT32"}, "T": {"type": "DT_FLOAT"}}}, {"name": "StatefulPartitionedCall/mobilebert/encoder/layer_._0/attention/self/transpose", "op": "Transpose", "input": ["StatefulPartitionedCall/mobilebert/encoder/layer_._0/attention/self/Reshape", "StatefulPartitionedCall/mobilebert/encoder/layer_._0/attention/self/transpose/perm"], "attr": {"Tperm": {"type": "DT_INT32"}, "T": {"type": "DT_FLOAT"}}}, {"name": "StatefulPartitionedCall/mobilebert/encoder/layer_._0/attention/self/transpose_1", "op": "Transpose", "input": ["StatefulPartitionedCall/mobilebert/encoder/layer_._0/attention/self/Reshape_1", "StatefulPartitionedCall/mobilebert/encoder/layer_._0/attention/self/transpose_1/perm"], "attr": {"Tperm": {"type": "DT_INT32"}, "T": {"type": "DT_FLOAT"}}}, {"name": "StatefulPartitionedCall/mobilebert/encoder/layer_._0/attention/self/MatMul", "op": "BatchMatMulV2", "input": ["StatefulPartitionedCall/mobilebert/encoder/layer_._0/attention/self/transpose", "StatefulPartitionedCall/mobilebert/encoder/layer_._0/attention/self/transpose_1"], "attr": {"adj_x": {"b": false}, "adj_y": {"b": true}, "T": {"type": "DT_FLOAT"}}}, {"name": "StatefulPartitionedCall/mobilebert/encoder/layer_._0/attention/self/truediv", "op": "Mul", "input": ["StatefulPartitionedCall/mobilebert/encoder/layer_._0/attention/self/MatMul", "ConstantFolding/StatefulPartitionedCall/mobilebert/encoder/layer_._0/attention/self/truediv_recip"], "attr": {"T": {"type": "DT_FLOAT"}}}, {"name": "StatefulPartitionedCall/mobilebert/encoder/layer_._0/attention/self/add", "op": "AddV2", "input": ["StatefulPartitionedCall/mobilebert/encoder/layer_._0/attention/self/truediv", "StatefulPartitionedCall/mobilebert/mul"], "attr": {"T": {"type": "DT_FLOAT"}}}, {"name": "StatefulPartitionedCall/mobilebert/encoder/layer_._0/attention/self/Softmax", "op": "Softmax", "input": ["StatefulPartitionedCall/mobilebert/encoder/layer_._0/attention/self/add"], "attr": {"T": {"type": "DT_FLOAT"}}}, {"name": "StatefulPartitionedCall/mobilebert/encoder/layer_._0/attention/self/MatMul_1", "op": "BatchMatMulV2", "input": ["StatefulPartitionedCall/mobilebert/encoder/layer_._0/attention/self/Softmax", "StatefulPartitionedCall/mobilebert/encoder/layer_._0/attention/self/transpose_2"], "attr": {"T": {"type": "DT_FLOAT"}, "adj_x": {"b": false}, "adj_y": {"b": false}}}, {"name": "StatefulPartitionedCall/mobilebert/encoder/layer_._0/attention/self/transpose_3", "op": "Transpose", "input": ["StatefulPartitionedCall/mobilebert/encoder/layer_._0/attention/self/MatMul_1", "StatefulPartitionedCall/mobilebert/encoder/layer_._0/attention/self/transpose_3/perm"], "attr": {"T": {"type": "DT_FLOAT"}, "Tperm": {"type": "DT_INT32"}}}, {"name": "StatefulPartitionedCall/mobilebert/encoder/layer_._0/attention/self/Reshape_3", "op": "Reshape", "input": ["StatefulPartitionedCall/mobilebert/encoder/layer_._0/attention/self/transpose_3", "StatefulPartitionedCall/mobilebert/encoder/layer_._0/attention/self/Reshape_3/shape"], "attr": {"T": {"type": "DT_FLOAT"}, "Tshape": {"type": "DT_INT32"}}}, {"name": "StatefulPartitionedCall/mobilebert/encoder/layer_._0/attention/output/dense/Tensordot/Shape", "op": "Shape", "input": ["StatefulPartitionedCall/mobilebert/encoder/layer_._0/attention/self/Reshape_3"], "attr": {"out_type": {"type": "DT_INT32"}, "T": {"type": "DT_FLOAT"}}}, {"name": "StatefulPartitionedCall/mobilebert/encoder/layer_._0/attention/output/dense/Tensordot/GatherV2_1", "op": "GatherV2", "input": ["StatefulPartitionedCall/mobilebert/encoder/layer_._0/attention/output/dense/Tensordot/Shape", "StatefulPartitionedCall/mobilebert/encoder/layer_._0/attention/output/dense/Tensordot/axes", "StatefulPartitionedCall/mobilebert/encoder/layer_._0/attention/output/dense/Tensordot/GatherV2_1/axis"], "attr": {"Tindices": {"type": "DT_INT32"}, "batch_dims": {"i": "0"}, "Tparams": {"type": "DT_INT32"}, "Taxis": {"type": "DT_INT32"}}}, {"name": "StatefulPartitionedCall/mobilebert/encoder/layer_._0/attention/output/dense/Tensordot/GatherV2", "op": "GatherV2", "input": ["StatefulPartitionedCall/mobilebert/encoder/layer_._0/attention/output/dense/Tensordot/Shape", "StatefulPartitionedCall/mobilebert/encoder/layer_._0/attention/output/dense/Tensordot/free", "StatefulPartitionedCall/mobilebert/encoder/layer_._0/attention/output/dense/Tensordot/GatherV2/axis"], "attr": {"Tindices": {"type": "DT_INT32"}, "Tparams": {"type": "DT_INT32"}, "batch_dims": {"i": "0"}, "Taxis": {"type": "DT_INT32"}}}, {"name": "StatefulPartitionedCall/mobilebert/encoder/layer_._0/attention/output/dense/Tensordot/Prod_1", "op": "Prod", "input": ["StatefulPartitionedCall/mobilebert/encoder/layer_._0/attention/output/dense/Tensordot/GatherV2_1", "StatefulPartitionedCall/mobilebert/encoder/layer_._0/attention/output/dense/Tensordot/Const_1"], "attr": {"T": {"type": "DT_INT32"}, "Tidx": {"type": "DT_INT32"}, "keep_dims": {"b": false}}}, {"name": "StatefulPartitionedCall/mobilebert/encoder/layer_._0/attention/output/dense/Tensordot/Prod", "op": "Prod", "input": ["StatefulPartitionedCall/mobilebert/encoder/layer_._0/attention/output/dense/Tensordot/GatherV2", "StatefulPartitionedCall/mobilebert/encoder/layer_._0/attention/output/dense/Tensordot/Const"], "attr": {"T": {"type": "DT_INT32"}, "keep_dims": {"b": false}, "Tidx": {"type": "DT_INT32"}}}, {"name": "StatefulPartitionedCall/mobilebert/encoder/layer_._0/attention/output/dense/Tensordot/concat_1", "op": "ConcatV2", "input": ["StatefulPartitionedCall/mobilebert/encoder/layer_._0/attention/output/dense/Tensordot/GatherV2", "StatefulPartitionedCall/mobilebert/encoder/layer_._0/attention/output/dense/Tensordot/Const_2", "StatefulPartitionedCall/mobilebert/encoder/layer_._0/attention/output/dense/Tensordot/concat_1/axis"], "attr": {"Tidx": {"type": "DT_INT32"}, "T": {"type": "DT_INT32"}, "N": {"i": "2"}}}, {"name": "StatefulPartitionedCall/mobilebert/encoder/layer_._0/attention/output/dense/Tensordot/stack", "op": "Pack", "input": ["StatefulPartitionedCall/mobilebert/encoder/layer_._0/attention/output/dense/Tensordot/Prod", "StatefulPartitionedCall/mobilebert/encoder/layer_._0/attention/output/dense/Tensordot/Prod_1"], "attr": {"T": {"type": "DT_INT32"}, "axis": {"i": "0"}, "N": {"i": "2"}}}, {"name": "StatefulPartitionedCall/mobilebert/encoder/layer_._0/attention/output/dense/Tensordot/Reshape", "op": "Reshape", "input": ["StatefulPartitionedCall/mobilebert/encoder/layer_._0/attention/self/transpose_3", "StatefulPartitionedCall/mobilebert/encoder/layer_._0/attention/output/dense/Tensordot/stack"], "attr": {"T": {"type": "DT_FLOAT"}, "Tshape": {"type": "DT_INT32"}}}, {"name": "StatefulPartitionedCall/mobilebert/encoder/layer_._0/attention/output/dense/Tensordot/MatMul", "op": "MatMul", "input": ["StatefulPartitionedCall/mobilebert/encoder/layer_._0/attention/output/dense/Tensordot/Reshape", "unknown_20"], "device": "/device:CPU:0", "attr": {"T": {"type": "DT_FLOAT"}, "transpose_b": {"b": false}, "transpose_a": {"b": false}}}, {"name": "StatefulPartitionedCall/mobilebert/encoder/layer_._0/attention/output/dense/Tensordot", "op": "Reshape", "input": ["StatefulPartitionedCall/mobilebert/encoder/layer_._0/attention/output/dense/Tensordot/MatMul", "StatefulPartitionedCall/mobilebert/encoder/layer_._0/attention/output/dense/Tensordot/concat_1"], "attr": {"T": {"type": "DT_FLOAT"}, "Tshape": {"type": "DT_INT32"}}}, {"name": "StatefulPartitionedCall/mobilebert/encoder/layer_._0/attention/output/dense/BiasAdd", "op": "BiasAdd", "input": ["StatefulPartitionedCall/mobilebert/encoder/layer_._0/attention/output/dense/Tensordot", "unknown_21"], "attr": {"data_format": {"s": "TkhXQw=="}, "T": {"type": "DT_FLOAT"}}}, {"name": "StatefulPartitionedCall/mobilebert/encoder/layer_._0/attention/output/add", "op": "AddV2", "input": ["StatefulPartitionedCall/mobilebert/encoder/layer_._0/attention/output/dense/BiasAdd", "StatefulPartitionedCall/mobilebert/encoder/layer_._0/bottleneck/input/LayerNorm/add"], "attr": {"T": {"type": "DT_FLOAT"}}}, {"name": "StatefulPartitionedCall/mobilebert/encoder/layer_._0/attention/output/LayerNorm/mul", "op": "Mul", "input": ["StatefulPartitionedCall/mobilebert/encoder/layer_._0/attention/output/add", "unknown_22"], "attr": {"T": {"type": "DT_FLOAT"}}}, {"name": "StatefulPartitionedCall/mobilebert/encoder/layer_._0/attention/output/LayerNorm/add", "op": "AddV2", "input": ["StatefulPartitionedCall/mobilebert/encoder/layer_._0/attention/output/LayerNorm/mul", "unknown_23"], "attr": {"T": {"type": "DT_FLOAT"}}}, {"name": "StatefulPartitionedCall/mobilebert/encoder/layer_._0/ffn.0/intermediate/dense/Tensordot/Shape", "op": "Shape", "input": ["StatefulPartitionedCall/mobilebert/encoder/layer_._0/attention/output/LayerNorm/add"], "attr": {"T": {"type": "DT_FLOAT"}, "out_type": {"type": "DT_INT32"}}}, {"name": "StatefulPartitionedCall/mobilebert/encoder/layer_._0/ffn.0/intermediate/dense/Tensordot/GatherV2_1", "op": "GatherV2", "input": ["StatefulPartitionedCall/mobilebert/encoder/layer_._0/ffn.0/intermediate/dense/Tensordot/Shape", "StatefulPartitionedCall/mobilebert/encoder/layer_._0/ffn.0/intermediate/dense/Tensordot/axes", "StatefulPartitionedCall/mobilebert/encoder/layer_._0/ffn.0/intermediate/dense/Tensordot/GatherV2_1/axis"], "attr": {"batch_dims": {"i": "0"}, "Tindices": {"type": "DT_INT32"}, "Taxis": {"type": "DT_INT32"}, "Tparams": {"type": "DT_INT32"}}}, {"name": "StatefulPartitionedCall/mobilebert/encoder/layer_._0/ffn.0/intermediate/dense/Tensordot/GatherV2", "op": "GatherV2", "input": ["StatefulPartitionedCall/mobilebert/encoder/layer_._0/ffn.0/intermediate/dense/Tensordot/Shape", "StatefulPartitionedCall/mobilebert/encoder/layer_._0/ffn.0/intermediate/dense/Tensordot/free", "StatefulPartitionedCall/mobilebert/encoder/layer_._0/ffn.0/intermediate/dense/Tensordot/GatherV2/axis"], "attr": {"batch_dims": {"i": "0"}, "Taxis": {"type": "DT_INT32"}, "Tparams": {"type": "DT_INT32"}, "Tindices": {"type": "DT_INT32"}}}, {"name": "StatefulPartitionedCall/mobilebert/encoder/layer_._0/ffn.0/intermediate/dense/Tensordot/Prod_1", "op": "Prod", "input": ["StatefulPartitionedCall/mobilebert/encoder/layer_._0/ffn.0/intermediate/dense/Tensordot/GatherV2_1", "StatefulPartitionedCall/mobilebert/encoder/layer_._0/ffn.0/intermediate/dense/Tensordot/Const_1"], "attr": {"keep_dims": {"b": false}, "T": {"type": "DT_INT32"}, "Tidx": {"type": "DT_INT32"}}}, {"name": "StatefulPartitionedCall/mobilebert/encoder/layer_._0/ffn.0/intermediate/dense/Tensordot/Prod", "op": "Prod", "input": ["StatefulPartitionedCall/mobilebert/encoder/layer_._0/ffn.0/intermediate/dense/Tensordot/GatherV2", "StatefulPartitionedCall/mobilebert/encoder/layer_._0/ffn.0/intermediate/dense/Tensordot/Const"], "attr": {"Tidx": {"type": "DT_INT32"}, "T": {"type": "DT_INT32"}, "keep_dims": {"b": false}}}, {"name": "StatefulPartitionedCall/mobilebert/encoder/layer_._0/ffn.0/intermediate/dense/Tensordot/concat_1", "op": "ConcatV2", "input": ["StatefulPartitionedCall/mobilebert/encoder/layer_._0/ffn.0/intermediate/dense/Tensordot/GatherV2", "StatefulPartitionedCall/mobilebert/encoder/layer_._0/ffn.0/intermediate/dense/Tensordot/Const_2", "StatefulPartitionedCall/mobilebert/encoder/layer_._0/ffn.0/intermediate/dense/Tensordot/concat_1/axis"], "attr": {"N": {"i": "2"}, "T": {"type": "DT_INT32"}, "Tidx": {"type": "DT_INT32"}}}, {"name": "StatefulPartitionedCall/mobilebert/encoder/layer_._0/ffn.0/intermediate/dense/Tensordot/stack", "op": "Pack", "input": ["StatefulPartitionedCall/mobilebert/encoder/layer_._0/ffn.0/intermediate/dense/Tensordot/Prod", "StatefulPartitionedCall/mobilebert/encoder/layer_._0/ffn.0/intermediate/dense/Tensordot/Prod_1"], "attr": {"T": {"type": "DT_INT32"}, "N": {"i": "2"}, "axis": {"i": "0"}}}, {"name": "StatefulPartitionedCall/mobilebert/encoder/layer_._0/ffn.0/intermediate/dense/Tensordot/Reshape", "op": "Reshape", "input": ["StatefulPartitionedCall/mobilebert/encoder/layer_._0/attention/output/LayerNorm/add", "StatefulPartitionedCall/mobilebert/encoder/layer_._0/ffn.0/intermediate/dense/Tensordot/stack"], "attr": {"T": {"type": "DT_FLOAT"}, "Tshape": {"type": "DT_INT32"}}}, {"name": "StatefulPartitionedCall/mobilebert/encoder/layer_._0/ffn.0/intermediate/dense/Tensordot/MatMul", "op": "MatMul", "input": ["StatefulPartitionedCall/mobilebert/encoder/layer_._0/ffn.0/intermediate/dense/Tensordot/Reshape", "unknown_24"], "device": "/device:CPU:0", "attr": {"transpose_b": {"b": false}, "transpose_a": {"b": false}, "T": {"type": "DT_FLOAT"}}}, {"name": "StatefulPartitionedCall/mobilebert/encoder/layer_._0/ffn.0/intermediate/dense/Tensordot", "op": "Reshape", "input": ["StatefulPartitionedCall/mobilebert/encoder/layer_._0/ffn.0/intermediate/dense/Tensordot/MatMul", "StatefulPartitionedCall/mobilebert/encoder/layer_._0/ffn.0/intermediate/dense/Tensordot/concat_1"], "attr": {"T": {"type": "DT_FLOAT"}, "Tshape": {"type": "DT_INT32"}}}, {"name": "StatefulPartitionedCall/mobilebert/encoder/layer_._0/ffn.0/intermediate/dense/BiasAdd", "op": "BiasAdd", "input": ["StatefulPartitionedCall/mobilebert/encoder/layer_._0/ffn.0/intermediate/dense/Tensordot", "unknown_25"], "attr": {"data_format": {"s": "TkhXQw=="}, "T": {"type": "DT_FLOAT"}}}, {"name": "StatefulPartitionedCall/mobilebert/encoder/layer_._0/ffn.0/intermediate/activation/mul", "op": "Mul", "input": ["StatefulPartitionedCall/mobilebert/encoder/layer_._0/ffn.0/intermediate/activation/mul/x", "StatefulPartitionedCall/mobilebert/encoder/layer_._0/ffn.0/intermediate/dense/BiasAdd"], "attr": {"_grappler_ArithmeticOptimizer_MinimizeBroadcasts": {"b": true}, "T": {"type": "DT_FLOAT"}}}, {"name": "StatefulPartitionedCall/mobilebert/encoder/layer_._0/ffn.0/intermediate/activation/truediv", "op": "Mul", "input": ["StatefulPartitionedCall/mobilebert/encoder/layer_._0/ffn.0/intermediate/dense/BiasAdd", "ConstantFolding/StatefulPartitionedCall/mobilebert/encoder/layer_._0/ffn.0/intermediate/activation/truediv_recip"], "attr": {"T": {"type": "DT_FLOAT"}}}, {"name": "StatefulPartitionedCall/mobilebert/encoder/layer_._0/ffn.0/intermediate/activation/Erf", "op": "Erf", "input": ["StatefulPartitionedCall/mobilebert/encoder/layer_._0/ffn.0/intermediate/activation/truediv"], "attr": {"T": {"type": "DT_FLOAT"}}}, {"name": "StatefulPartitionedCall/mobilebert/encoder/layer_._0/ffn.0/intermediate/activation/add", "op": "AddV2", "input": ["StatefulPartitionedCall/mobilebert/encoder/layer_._0/ffn.0/intermediate/activation/add/x", "StatefulPartitionedCall/mobilebert/encoder/layer_._0/ffn.0/intermediate/activation/Erf"], "attr": {"T": {"type": "DT_FLOAT"}}}, {"name": "StatefulPartitionedCall/mobilebert/encoder/layer_._0/ffn.0/intermediate/activation/mul_1", "op": "Mul", "input": ["StatefulPartitionedCall/mobilebert/encoder/layer_._0/ffn.0/intermediate/activation/mul", "StatefulPartitionedCall/mobilebert/encoder/layer_._0/ffn.0/intermediate/activation/add"], "attr": {"_grappler_ArithmeticOptimizer_MinimizeBroadcasts": {"b": true}, "T": {"type": "DT_FLOAT"}}}, {"name": "StatefulPartitionedCall/mobilebert/encoder/layer_._0/ffn.0/output/dense/Tensordot/Shape", "op": "Shape", "input": ["StatefulPartitionedCall/mobilebert/encoder/layer_._0/ffn.0/intermediate/activation/mul_1"], "attr": {"out_type": {"type": "DT_INT32"}, "T": {"type": "DT_FLOAT"}}}, {"name": "StatefulPartitionedCall/mobilebert/encoder/layer_._0/ffn.0/output/dense/Tensordot/GatherV2_1", "op": "GatherV2", "input": ["StatefulPartitionedCall/mobilebert/encoder/layer_._0/ffn.0/output/dense/Tensordot/Shape", "StatefulPartitionedCall/mobilebert/encoder/layer_._0/ffn.0/output/dense/Tensordot/axes", "StatefulPartitionedCall/mobilebert/encoder/layer_._0/ffn.0/output/dense/Tensordot/GatherV2_1/axis"], "attr": {"batch_dims": {"i": "0"}, "Tparams": {"type": "DT_INT32"}, "Taxis": {"type": "DT_INT32"}, "Tindices": {"type": "DT_INT32"}}}, {"name": "StatefulPartitionedCall/mobilebert/encoder/layer_._0/ffn.0/output/dense/Tensordot/GatherV2", "op": "GatherV2", "input": ["StatefulPartitionedCall/mobilebert/encoder/layer_._0/ffn.0/output/dense/Tensordot/Shape", "StatefulPartitionedCall/mobilebert/encoder/layer_._0/ffn.0/output/dense/Tensordot/free", "StatefulPartitionedCall/mobilebert/encoder/layer_._0/ffn.0/output/dense/Tensordot/GatherV2/axis"], "attr": {"Taxis": {"type": "DT_INT32"}, "Tindices": {"type": "DT_INT32"}, "batch_dims": {"i": "0"}, "Tparams": {"type": "DT_INT32"}}}, {"name": "StatefulPartitionedCall/mobilebert/encoder/layer_._0/ffn.0/output/dense/Tensordot/Prod_1", "op": "Prod", "input": ["StatefulPartitionedCall/mobilebert/encoder/layer_._0/ffn.0/output/dense/Tensordot/GatherV2_1", "StatefulPartitionedCall/mobilebert/encoder/layer_._0/ffn.0/output/dense/Tensordot/Const_1"], "attr": {"keep_dims": {"b": false}, "Tidx": {"type": "DT…
t_1", "shape": [1], "dtype": "int32"}, {"name": "unknown_98", "shape": [256, 13], "dtype": "float32"}, {"name": "StatefulPartitionedCall/mobilebert/encoder/layer_._1/output/bottleneck/dense/Tensordot/Const", "shape": [1], "dtype": "int32"}, {"name": "StatefulPartitionedCall/mobilebert/encoder/layer_._1/output/bottleneck/dense/Tensordot/axes", "shape": [1], "dtype": "int32"}, {"name": "StatefulPartitionedCall/mobilebert/encoder/layer_._1/output/bottleneck/dense/Tensordot/GatherV2_1/axis", "shape": [], "dtype": "int32"}, {"name": "StatefulPartitionedCall/mobilebert/encoder/layer_._1/output/bottleneck/dense/Tensordot/Const_1", "shape": [1], "dtype": "int32"}, {"name": "unknown_94", "shape": [128, 256], "dtype": "float32"}, {"name": "StatefulPartitionedCall/mobilebert/encoder/layer_._1/output/dense/Tensordot/Const", "shape": [1], "dtype": "int32"}, {"name": "StatefulPartitionedCall/mobilebert/encoder/layer_._1/output/dense/Tensordot/axes", "shape": [1], "dtype": "int32"}, {"name": "StatefulPartitionedCall/mobilebert/encoder/layer_._1/output/dense/Tensordot/GatherV2_1/axis", "shape": [], "dtype": "int32"}, {"name": "StatefulPartitionedCall/mobilebert/encoder/layer_._1/output/dense/Tensordot/Const_1", "shape": [1], "dtype": "int32"}, {"name": "unknown_90", "shape": [1024, 128], "dtype": "float32"}, {"name": "StatefulPartitionedCall/mobilebert/encoder/layer_._1/intermediate/activation/mul/x", "shape": [], "dtype": "float32"}, {"name": "StatefulPartitionedCall/mobilebert/encoder/layer_._1/intermediate/activation/add/x", "shape": [], "dtype": "float32"}, {"name": "StatefulPartitionedCall/mobilebert/encoder/layer_._1/intermediate/dense/Tensordot/Const", "shape": [1], "dtype": "int32"}, {"name": "StatefulPartitionedCall/mobilebert/encoder/layer_._1/intermediate/dense/Tensordot/axes", "shape": [1], "dtype": "int32"}, {"name": "StatefulPartitionedCall/mobilebert/encoder/layer_._1/intermediate/dense/Tensordot/GatherV2_1/axis", "shape": [], "dtype": "int32"}, {"name": "StatefulPartitionedCall/mobilebert/encoder/layer_._1/intermediate/dense/Tensordot/Const_1", "shape": [1], "dtype": "int32"}, {"name": "unknown_88", "shape": [128, 1024], "dtype": "float32"}, {"name": "StatefulPartitionedCall/mobilebert/encoder/layer_._1/intermediate/dense/Tensordot/free", "shape": [2], "dtype": "int32"}, {"name": "StatefulPartitionedCall/mobilebert/encoder/layer_._1/intermediate/dense/Tensordot/GatherV2/axis", "shape": [], "dtype": "int32"}, {"name": "StatefulPartitionedCall/mobilebert/encoder/layer_._1/intermediate/dense/Tensordot/Const_2", "shape": [1], "dtype": "int32"}, {"name": "StatefulPartitionedCall/mobilebert/encoder/layer_._1/intermediate/dense/Tensordot/concat_1/axis", "shape": [], "dtype": "int32"}, {"name": "unknown_89", "shape": [1024], "dtype": "float32"}, {"name": "ConstantFolding/StatefulPartitionedCall/mobilebert/encoder/layer_._1/intermediate/activation/truediv_recip", "shape": [], "dtype": "float32"}, {"name": "StatefulPartitionedCall/mobilebert/encoder/layer_._1/output/dense/Tensordot/free", "shape": [2], "dtype": "int32"}, {"name": "StatefulPartitionedCall/mobilebert/encoder/layer_._1/output/dense/Tensordot/GatherV2/axis", "shape": [], "dtype": "int32"}, {"name": "StatefulPartitionedCall/mobilebert/encoder/layer_._1/output/dense/Tensordot/Const_2", "shape": [1], "dtype": "int32"}, {"name": "StatefulPartitionedCall/mobilebert/encoder/layer_._1/output/dense/Tensordot/concat_1/axis", "shape": [], "dtype": "int32"}, {"name": "unknown_91", "shape": [128], "dtype": "float32"}, {"name": "StatefulPartitionedCall/mobilebert/encoder/layer_._1/ffn.2/output/dense/Tensordot/Const", "shape": [1], "dtype": "int32"}, {"name": "StatefulPartitionedCall/mobilebert/encoder/layer_._1/ffn.2/output/dense/Tensordot/axes", "shape": [1], "dtype": "int32"}, {"name": "StatefulPartitionedCall/mobilebert/encoder/layer_._1/ffn.2/output/dense/Tensordot/GatherV2_1/axis", "shape": [], "dtype": "int32"}, {"name": "StatefulPartitionedCall/mobilebert/encoder/layer_._1/ffn.2/output/dense/Tensordot/Const_1", "shape": [1], "dtype": "int32"}, {"name": "unknown_84", "shape": [1024, 128], "dtype": "float32"}, {"name": "StatefulPartitionedCall/mobilebert/encoder/layer_._1/ffn.2/intermediate/activation/mul/x", "shape": [], "dtype": "float32"}, {"name": "StatefulPartitionedCall/mobilebert/encoder/layer_._1/ffn.2/intermediate/activation/add/x", "shape": [], "dtype": "float32"}, {"name": "StatefulPartitionedCall/mobilebert/encoder/layer_._1/ffn.2/intermediate/dense/Tensordot/Const", "shape": [1], "dtype": "int32"}, {"name": "StatefulPartitionedCall/mobilebert/encoder/layer_._1/ffn.2/intermediate/dense/Tensordot/axes", "shape": [1], "dtype": "int32"}, {"name": "StatefulPartitionedCall/mobilebert/encoder/layer_._1/ffn.2/intermediate/dense/Tensordot/GatherV2_1/axis", "shape": [], "dtype": "int32"}, {"name": "StatefulPartitionedCall/mobilebert/encoder/layer_._1/ffn.2/intermediate/dense/Tensordot/Const_1", "shape": [1], "dtype": "int32"}, {"name": "unknown_82", "shape": [128, 1024], "dtype": "float32"}, {"name": "StatefulPartitionedCall/mobilebert/encoder/layer_._1/ffn.2/intermediate/dense/Tensordot/free", "shape": [2], "dtype": "int32"}, {"name": "StatefulPartitionedCall/mobilebert/encoder/layer_._1/ffn.2/intermediate/dense/Tensordot/GatherV2/axis", "shape": [], "dtype": "int32"}, {"name": "StatefulPartitionedCall/mobilebert/encoder/layer_._1/ffn.2/intermediate/dense/Tensordot/Const_2", "shape": [1], "dtype": "int32"}, {"name": "StatefulPartitionedCall/mobilebert/encoder/layer_._1/ffn.2/intermediate/dense/Tensordot/concat_1/axis", "shape": [], "dtype": "int32"}, {"name": "unknown_83", "shape": [1024], "dtype": "float32"}, {"name": "ConstantFolding/StatefulPartitionedCall/mobilebert/encoder/layer_._1/ffn.2/intermediate/activation/truediv_recip", "shape": [], "dtype": "float32"}, {"name": "StatefulPartitionedCall/mobilebert/encoder/layer_._1/ffn.2/output/dense/Tensordot/free", "shape": [2], "dtype": "int32"}, {"name": "StatefulPartitionedCall/mobilebert/encoder/layer_._1/ffn.2/output/dense/Tensordot/GatherV2/axis", "shape": [], "dtype": "int32"}, {"name": "StatefulPartitionedCall/mobilebert/encoder/layer_._1/ffn.2/output/dense/Tensordot/Const_2", "shape": [1], "dtype": "int32"}, {"name": "StatefulPartitionedCall/mobilebert/encoder/layer_._1/ffn.2/output/dense/Tensordot/concat_1/axis", "shape": [], "dtype": "int32"}, {"name": "unknown_85", "shape": [128], "dtype": "float32"}, {"name": "StatefulPartitionedCall/mobilebert/encoder/layer_._1/ffn.1/output/dense/Tensordot/Const", "shape": [1], "dtype": "int32"}, {"name": "StatefulPartitionedCall/mobilebert/encoder/layer_._1/ffn.1/output/dense/Tensordot/axes", "shape": [1], "dtype": "int32"}, {"name": "StatefulPartitionedCall/mobilebert/encoder/layer_._1/ffn.1/output/dense/Tensordot/GatherV2_1/axis", "shape": [], "dtype": "int32"}, {"name": "StatefulPartitionedCall/mobilebert/encoder/layer_._1/ffn.1/output/dense/Tensordot/Const_1", "shape": [1], "dtype": "int32"}, {"name": "unknown_78", "shape": [1024, 128], "dtype": "float32"}, {"name": "StatefulPartitionedCall/mobilebert/encoder/layer_._1/ffn.1/intermediate/activation/mul/x", "shape": [], "dtype": "float32"}, {"name": "StatefulPartitionedCall/mobilebert/encoder/layer_._1/ffn.1/intermediate/activation/add/x", "shape": [], "dtype": "float32"}, {"name": "StatefulPartitionedCall/mobilebert/encoder/layer_._1/ffn.1/intermediate/dense/Tensordot/Const", "shape": [1], "dtype": "int32"}, {"name": "StatefulPartitionedCall/mobilebert/encoder/layer_._1/ffn.1/intermediate/dense/Tensordot/axes", "shape": [1], "dtype": "int32"}, {"name": "StatefulPartitionedCall/mobilebert/encoder/layer_._1/ffn.1/intermediate/dense/Tensordot/GatherV2_1/axis", "shape": [], "dtype": "int32"}, {"name": "StatefulPartitionedCall/mobilebert/encoder/layer_._1/ffn.1/intermediate/dense/Tensordot/Const_1", "shape": [1], "dtype": "int32"}, {"name": "unknown_76", "shape": [128, 1024], "dtype": "float32"}, {"name": "StatefulPartitionedCall/mobilebert/encoder/layer_._1/ffn.1/intermediate/dense/Tensordot/free", "shape": [2], "dtype": "int32"}, {"name": "StatefulPartitionedCall/mobilebert/encoder/layer_._1/ffn.1/intermediate/dense/Tensordot/GatherV2/axis", "shape": [], "dtype": "int32"}, {"name": "StatefulPartitionedCall/mobilebert/encoder/layer_._1/ffn.1/intermediate/dense/Tensordot/Const_2", "shape": [1], "dtype": "int32"}, {"name": "StatefulPartitionedCall/mobilebert/encoder/layer_._1/ffn.1/intermediate/dense/Tensordot/concat_1/axis", "shape": [], "dtype": "int32"}, {"name": "unknown_77", "shape": [1024], "dtype": "float32"}, {"name": "ConstantFolding/StatefulPartitionedCall/mobilebert/encoder/layer_._1/ffn.1/intermediate/activation/truediv_recip", "shape": [], "dtype": "float32"}, {"name": "StatefulPartitionedCall/mobilebert/encoder/layer_._1/ffn.1/output/dense/Tensordot/free", "shape": [2], "dtype": "int32"}, {"name": "StatefulPartitionedCall/mobilebert/encoder/layer_._1/ffn.1/output/dense/Tensordot/GatherV2/axis", "shape": [], "dtype": "int32"}, {"name": "StatefulPartitionedCall/mobilebert/encoder/layer_._1/ffn.1/output/dense/Tensordot/Const_2", "shape": [1], "dtype": "int32"}, {"name": "StatefulPartitionedCall/mobilebert/encoder/layer_._1/ffn.1/output/dense/Tensordot/concat_1/axis", "shape": [], "dtype": "int32"}, {"name": "unknown_79", "shape": [128], "dtype": "float32"}, {"name": "StatefulPartitionedCall/mobilebert/encoder/layer_._1/ffn.0/output/dense/Tensordot/Const", "shape": [1], "dtype": "int32"}, {"name": "StatefulPartitionedCall/mobilebert/encoder/layer_._1/ffn.0/output/dense/Tensordot/axes", "shape": [1], "dtype": "int32"}, {"name": "StatefulPartitionedCall/mobilebert/encoder/layer_._1/ffn.0/output/dense/Tensordot/GatherV2_1/axis", "shape": [], "dtype": "int32"}, {"name": "StatefulPartitionedCall/mobilebert/encoder/layer_._1/ffn.0/output/dense/Tensordot/Const_1", "shape": [1], "dtype": "int32"}, {"name": "unknown_72", "shape": [1024, 128], "dtype": "float32"}, {"name": "StatefulPartitionedCall/mobilebert/encoder/layer_._1/ffn.0/intermediate/activation/mul/x", "shape": [], "dtype": "float32"}, {"name": "StatefulPartitionedCall/mobilebert/encoder/layer_._1/ffn.0/intermediate/activation/add/x", "shape": [], "dtype": "float32"}, {"name": "StatefulPartitionedCall/mobilebert/encoder/layer_._1/ffn.0/intermediate/dense/Tensordot/Const", "shape": [1], "dtype": "int32"}, {"name": "StatefulPartitionedCall/mobilebert/encoder/layer_._1/ffn.0/intermediate/dense/Tensordot/axes", "shape": [1], "dtype": "int32"}, {"name": "StatefulPartitionedCall/mobilebert/encoder/layer_._1/ffn.0/intermediate/dense/Tensordot/GatherV2_1/axis", "shape": [], "dtype": "int32"}, {"name": "StatefulPartitionedCall/mobilebert/encoder/layer_._1/ffn.0/intermediate/dense/Tensordot/Const_1", "shape": [1], "dtype": "int32"}, {"name": "unknown_70", "shape": [128, 1024], "dtype": "float32"}, {"name": "StatefulPartitionedCall/mobilebert/encoder/layer_._1/ffn.0/intermediate/dense/Tensordot/free", "shape": [2], "dtype": "int32"}, {"name": "StatefulPartitionedCall/mobilebert/encoder/layer_._1/ffn.0/intermediate/dense/Tensordot/GatherV2/axis", "shape": [], "dtype": "int32"}, {"name": "StatefulPartitionedCall/mobilebert/encoder/layer_._1/ffn.0/intermediate/dense/Tensordot/Const_2", "shape": [1], "dtype": "int32"}, {"name": "StatefulPartitionedCall/mobilebert/encoder/layer_._1/ffn.0/intermediate/dense/Tensordot/concat_1/axis", "shape": [], "dtype": "int32"}, {"name": "unknown_71", "shape": [1024], "dtype": "float32"}, {"name": "ConstantFolding/StatefulPartitionedCall/mobilebert/encoder/layer_._1/ffn.0/intermediate/activation/truediv_recip", "shape": [], "dtype": "float32"}, {"name": "StatefulPartitionedCall/mobilebert/encoder/layer_._1/ffn.0/output/dense/Tensordot/free", "shape": [2], "dtype": "int32"}, {"name": "StatefulPartitionedCall/mobilebert/encoder/layer_._1/ffn.0/output/dense/Tensordot/GatherV2/axis", "shape": [], "dtype": "int32"}, {"name": "StatefulPartitionedCall/mobilebert/encoder/layer_._1/ffn.0/output/dense/Tensordot/Const_2", "shape": [1], "dtype": "int32"}, {"name": "StatefulPartitionedCall/mobilebert/encoder/layer_._1/ffn.0/output/dense/Tensordot/concat_1/axis", "shape": [], "dtype": "int32"}, {"name": "unknown_73", "shape": [128], "dtype": "float32"}, {"name": "StatefulPartitionedCall/mobilebert/encoder/layer_._1/attention/output/dense/Tensordot/Const", "shape": [1], "dtype": "int32"}, {"name": "StatefulPartitionedCall/mobilebert/encoder/layer_._1/attention/output/dense/Tensordot/axes", "shape": [1], "dtype": "int32"}, {"name": "StatefulPartitionedCall/mobilebert/encoder/layer_._1/attention/output/dense/Tensordot/GatherV2_1/axis", "shape": [], "dtype": "int32"}, {"name": "StatefulPartitionedCall/mobilebert/encoder/layer_._1/attention/output/dense/Tensordot/Const_1", "shape": [1], "dtype": "int32"}, {"name": "unknown_66", "shape": [128, 128], "dtype": "float32"}, {"name": "StatefulPartitionedCall/mobilebert/encoder/layer_._1/attention/self/query/Tensordot/Const", "shape": [1], "dtype": "int32"}, {"name": "StatefulPartitionedCall/mobilebert/encoder/layer_._1/attention/self/query/Tensordot/axes", "shape": [1], "dtype": "int32"}, {"name": "StatefulPartitionedCall/mobilebert/encoder/layer_._1/attention/self/query/Tensordot/GatherV2_1/axis", "shape": [], "dtype": "int32"}, {"name": "StatefulPartitionedCall/mobilebert/encoder/layer_._1/attention/self/query/Tensordot/Const_1", "shape": [1], "dtype": "int32"}, {"name": "unknown_60", "shape": [128, 128], "dtype": "float32"}, {"name": "StatefulPartitionedCall/mobilebert/encoder/layer_._1/attention/self/query/Tensordot/free", "shape": [2], "dtype": "int32"}, {"name": "StatefulPartitionedCall/mobilebert/encoder/layer_._1/attention/self/query/Tensordot/GatherV2/axis", "shape": [], "dtype": "int32"}, {"name": "StatefulPartitionedCall/mobilebert/encoder/layer_._1/attention/self/query/Tensordot/Const_2", "shape": [1], "dtype": "int32"}, {"name": "StatefulPartitionedCall/mobilebert/encoder/layer_._1/attention/self/query/Tensordot/concat_1/axis", "shape": [], "dtype": "int32"}, {"name": "unknown_61", "shape": [128], "dtype": "float32"}, {"name": "StatefulPartitionedCall/mobilebert/encoder/layer_._1/attention/self/Reshape/shape", "shape": [4], "dtype": "int32"}, {"name": "StatefulPartitionedCall/mobilebert/encoder/layer_._1/attention/self/transpose/perm", "shape": [4], "dtype": "int32"}, {"name": "StatefulPartitionedCall/mobilebert/encoder/layer_._1/attention/self/key/Tensordot/Const", "shape": [1], "dtype": "int32"}, {"name": "StatefulPartitionedCall/mobilebert/encoder/layer_._1/attention/self/key/Tensordot/axes", "shape": [1], "dtype": "int32"}, {"name": "StatefulPartitionedCall/mobilebert/encoder/layer_._1/attention/self/key/Tensordot/GatherV2_1/axis", "shape": [], "dtype": "int32"}, {"name": "StatefulPartitionedCall/mobilebert/encoder/layer_._1/attention/self/key/Tensordot/Const_1", "shape": [1], "dtype": "int32"}, {"name": "unknown_62", "shape": [128, 128], "dtype": "float32"}, {"name": "StatefulPartitionedCall/mobilebert/encoder/layer_._1/bottleneck/attention/dense/Tensordot/Const", "shape": [1], "dtype": "int32"}, {"name": "StatefulPartitionedCall/mobilebert/encoder/layer_._1/bottleneck/attention/dense/Tensordot/axes", "shape": [1], "dtype": "int32"}, {"name": "StatefulPartitionedCall/mobilebert/encoder/layer_._1/bottleneck/attention/dense/Tensordot/GatherV2_1/axis", "shape": [], "dtype": "int32"}, {"name": "StatefulPartitionedCall/mobilebert/encoder/layer_._1/bottleneck/attention/dense/Tensordot/Const_1", "shape": [1], "dtype": "int32"}, {"name": "unknown_56", "shape": [256, 128], "dtype": "float32"}, {"name": "StatefulPartitionedCall/mobilebert/encoder/layer_._1/bottleneck/attention/dense/Tensordot/free", "shape": [2], "dtype": "int32"}, {"name": "StatefulPartitionedCall/mobilebert/encoder/layer_._1/bottleneck/attention/dense/Tensordot/GatherV2/axis", "shape": [], "dtype": "int32"}, {"name": "StatefulPartitionedCall/mobilebert/encoder/layer_._1/bottleneck/attention/dense/Tensordot/Const_2", "shape": [1], "dtype": "int32"}, {"name": "StatefulPartitionedCall/mobilebert/encoder/layer_._1/bottleneck/attention/dense/Tensordot/concat_1/axis", "shape": [], "dtype": "int32"}, {"name": "unknown_57", "shape": [128], "dtype": "float32"}, {"name": "unknown_58", "shape": [128], "dtype": "float32"}, {"name": "unknown_59", "shape": [128], "dtype": "float32"}, {"name": "StatefulPartitionedCall/mobilebert/encoder/layer_._1/attention/self/key/Tensordot/free", "shape": [2], "dtype": "int32"}, {"name": "StatefulPartitionedCall/mobilebert/encoder/layer_._1/attention/self/key/Tensordot/GatherV2/axis", "shape": [], "dtype": "int32"}, {"name": "StatefulPartitionedCall/mobilebert/encoder/layer_._1/attention/self/key/Tensordot/Const_2", "shape": [1], "dtype": "int32"}, {"name": "StatefulPartitionedCall/mobilebert/encoder/layer_._1/attention/self/key/Tensordot/concat_1/axis", "shape": [], "dtype": "int32"}, {"name": "unknown_63", "shape": [128], "dtype": "float32"}, {"name": "StatefulPartitionedCall/mobilebert/encoder/layer_._1/attention/self/Reshape_1/shape", "shape": [4], "dtype": "int32"}, {"name": "StatefulPartitionedCall/mobilebert/encoder/layer_._1/attention/self/transpose_1/perm", "shape": [4], "dtype": "int32"}, {"name": "ConstantFolding/StatefulPartitionedCall/mobilebert/encoder/layer_._1/attention/self/truediv_recip", "shape": [], "dtype": "float32"}, {"name": "StatefulPartitionedCall/mobilebert/encoder/layer_._1/attention/self/value/Tensordot/Const", "shape": [1], "dtype": "int32"}, {"name": "StatefulPartitionedCall/mobilebert/encoder/layer_._1/attention/self/value/Tensordot/axes", "shape": [1], "dtype": "int32"}, {"name": "StatefulPartitionedCall/mobilebert/encoder/layer_._1/attention/self/value/Tensordot/GatherV2_1/axis", "shape": [], "dtype": "int32"}, {"name": "StatefulPartitionedCall/mobilebert/encoder/layer_._1/attention/self/value/Tensordot/Const_1", "shape": [1], "dtype": "int32"}, {"name": "unknown_64", "shape": [256, 128], "dtype": "float32"}, {"name": "StatefulPartitionedCall/mobilebert/encoder/layer_._1/attention/self/value/Tensordot/free", "shape": [2], "dtype": "int32"}, {"name": "StatefulPartitionedCall/mobilebert/encoder/layer_._1/attention/self/value/Tensordot/GatherV2/axis", "shape": [], "dtype": "int32"}, {"name": "StatefulPartitionedCall/mobilebert/encoder/layer_._1/attention/self/value/Tensordot/Const_2", "shape": [1], "dtype": "int32"}, {"name": "StatefulPartitionedCall/mobilebert/encoder/layer_._1/attention/self/value/Tensordot/concat_1/axis", "shape": [], "dtype": "int32"}, {"name": "unknown_65", "shape": [128], "dtype": "float32"}, {"name": "StatefulPartitionedCall/mobilebert/encoder/layer_._1/attention/self/Reshape_2/shape", "shape": [4], "dtype": "int32"}, {"name": "StatefulPartitionedCall/mobilebert/encoder/layer_._1/attention/self/transpose_2/perm", "shape": [4], "dtype": "int32"}, {"name": "StatefulPartitionedCall/mobilebert/encoder/layer_._1/attention/self/transpose_3/perm", "shape": [4], "dtype": "int32"}, {"name": "StatefulPartitionedCall/mobilebert/encoder/layer_._1/attention/self/Reshape_3/shape", "shape": [3], "dtype": "int32"}, {"name": "StatefulPartitionedCall/mobilebert/encoder/layer_._1/attention/output/dense/Tensordot/free", "shape": [2], "dtype": "int32"}, {"name": "StatefulPartitionedCall/mobilebert/encoder/layer_._1/attention/output/dense/Tensordot/GatherV2/axis", "shape": [], "dtype": "int32"}, {"name": "StatefulPartitionedCall/mobilebert/encoder/layer_._1/attention/output/dense/Tensordot/Const_2", "shape": [1], "dtype": "int32"}, {"name": "StatefulPartitionedCall/mobilebert/encoder/layer_._1/attention/output/dense/Tensordot/concat_1/axis", "shape": [], "dtype": "int32"}, {"name": "unknown_67", "shape": [128], "dtype": "float32"}, {"name": "StatefulPartitionedCall/mobilebert/encoder/layer_._1/bottleneck/input/dense/Tensordot/Const", "shape": [1], "dtype": "int32"}, {"name": "StatefulPartitionedCall/mobilebert/encoder/layer_._1/bottleneck/input/dense/Tensordot/axes", "shape": [1], "dtype": "int32"}, {"name": "StatefulPartitionedCall/mobilebert/encoder/layer_._1/bottleneck/input/dense/Tensordot/GatherV2_1/axis", "shape": [], "dtype": "int32"}, {"name": "StatefulPartitionedCall/mobilebert/encoder/layer_._1/bottleneck/input/dense/Tensordot/Const_1", "shape": [1], "dtype": "int32"}, {"name": "unknown_52", "shape": [256, 128], "dtype": "float32"}, {"name": "StatefulPartitionedCall/mobilebert/encoder/layer_._1/bottleneck/input/dense/Tensordot/free", "shape": [2], "dtype": "int32"}, {"name": "StatefulPartitionedCall/mobilebert/encoder/layer_._1/bottleneck/input/dense/Tensordot/GatherV2/axis", "shape": [], "dtype": "int32"}, {"name": "StatefulPartitionedCall/mobilebert/encoder/layer_._1/bottleneck/input/dense/Tensordot/Const_2", "shape": [1], "dtype": "int32"}, {"name": "StatefulPartitionedCall/mobilebert/encoder/layer_._1/bottleneck/input/dense/Tensordot/concat_1/axis", "shape": [], "dtype": "int32"}, {"name": "unknown_53", "shape": [128], "dtype": "float32"}, {"name": "unknown_54", "shape": [128], "dtype": "float32"}, {"name": "unknown_55", "shape": [128], "dtype": "float32"}, {"name": "unknown_68", "shape": [128], "dtype": "float32"}, {"name": "unknown_69", "shape": [128], "dtype": "float32"}, {"name": "unknown_74", "shape": [128], "dtype": "float32"}, {"name": "unknown_75", "shape": [128], "dtype": "float32"}, {"name": "unknown_80", "shape": [128], "dtype": "float32"}, {"name": "unknown_81", "shape": [128], "dtype": "float32"}, {"name": "unknown_86", "shape": [128], "dtype": "float32"}, {"name": "unknown_87", "shape": [128], "dtype": "float32"}, {"name": "unknown_92", "shape": [128], "dtype": "float32"}, {"name": "unknown_93", "shape": [128], "dtype": "float32"}, {"name": "StatefulPartitionedCall/mobilebert/encoder/layer_._1/output/bottleneck/dense/Tensordot/free", "shape": [2], "dtype": "int32"}, {"name": "StatefulPartitionedCall/mobilebert/encoder/layer_._1/output/bottleneck/dense/Tensordot/GatherV2/axis", "shape": [], "dtype": "int32"}, {"name": "StatefulPartitionedCall/mobilebert/encoder/layer_._1/output/bottleneck/dense/Tensordot/Const_2", "shape": [1], "dtype": "int32"}, {"name": "StatefulPartitionedCall/mobilebert/encoder/layer_._1/output/bottleneck/dense/Tensordot/concat_1/axis", "shape": [], "dtype": "int32"}, {"name": "unknown_95", "shape": [256], "dtype": "float32"}, {"name": "StatefulPartitionedCall/mobilebert/encoder/layer_._0/output/bottleneck/dense/Tensordot/Const", "shape": [1], "dtype": "int32"}, {"name": "StatefulPartitionedCall/mobilebert/encoder/layer_._0/output/bottleneck/dense/Tensordot/axes", "shape": [1], "dtype": "int32"}, {"name": "StatefulPartitionedCall/mobilebert/encoder/layer_._0/output/bottleneck/dense/Tensordot/GatherV2_1/axis", "shape": [], "dtype": "int32"}, {"name": "StatefulPartitionedCall/mobilebert/encoder/layer_._0/output/bottleneck/dense/Tensordot/Const_1", "shape": [1], "dtype": "int32"}, {"name": "unknown_48", "shape": [128, 256], "dtype": "float32"}, {"name": "StatefulPartitionedCall/mobilebert/encoder/layer_._0/output/dense/Tensordot/Const", "shape": [1], "dtype": "int32"}, {"name": "StatefulPartitionedCall/mobilebert/encoder/layer_._0/output/dense/Tensordot/axes", "shape": [1], "dtype": "int32"}, {"name": "StatefulPartitionedCall/mobilebert/encoder/layer_._0/output/dense/Tensordot/GatherV2_1/axis", "shape": [], "dtype": "int32"}, {"name": "StatefulPartitionedCall/mobilebert/encoder/layer_._0/output/dense/Tensordot/Const_1", "shape": [1], "dtype": "int32"}, {"name": "unknown_44", "shape": [1024, 128], "dtype": "float32"}, {"name": "StatefulPartitionedCall/mobilebert/encoder/layer_._0/intermediate/activation/mul/x", "shape": [], "dtype": "float32"}, {"name": "StatefulPartitionedCall/mobilebert/encoder/layer_._0/intermediate/activation/add/x", "shape": [], "dtype": "float32"}, {"name": "StatefulPartitionedCall/mobilebert/encoder/layer_._0/intermediate/dense/Tensordot/Const", "shape": [1], "dtype": "int32"}, {"name": "StatefulPartitionedCall/mobilebert/encoder/layer_._0/intermediate/dense/Tensordot/axes", "shape": [1], "dtype": "int32"}, {"name": "StatefulPartitionedCall/mobilebert/encoder/layer_._0/intermediate/dense/Tensordot/GatherV2_1/axis", "shape": [], "dtype": "int32"}, {"name": "StatefulPartitionedCall/mobilebert/encoder/layer_._0/intermediate/dense/Tensordot/Const_1", "shape": [1], "dtype": "int32"}, {"name": "unknown_42", "shape": [128, 1024], "dtype": "float32"}, {"name": "StatefulPartitionedCall/mobilebert/encoder/layer_._0/intermediate/dense/Tensordot/free", "shape": [2], "dtype": "int32"}, {"name": "StatefulPartitionedCall/mobilebert/encoder/layer_._0/intermediate/dense/Tensordot/GatherV2/axis", "shape": [], "dtype": "int32"}, {"name": "StatefulPartitionedCall/mobilebert/encoder/layer_._0/intermediate/dense/Tensordot/Const_2", "shape": [1], "dtype": "int32"}, {"name": "StatefulPartitionedCall/mobilebert/encoder/layer_._0/intermediate/dense/Tensordot/concat_1/axis", "shape": [], "dtype": "int32"}, {"name": "unknown_43", "shape": [1024], "dtype": "float32"}, {"name": "ConstantFolding/StatefulPartitionedCall/mobilebert/encoder/layer_._0/intermediate/activation/truediv_recip", "shape": [], "dtype": "float32"}, {"name": "StatefulPartitionedCall/mobilebert/encoder/layer_._0/output/dense/Tensordot/free", "shape": [2], "dtype": "int32"}, {"name": "StatefulPartitionedCall/mobilebert/encoder/layer_._0/output/dense/Tensordot/GatherV2/axis", "shape": [], "dtype": "int32"}, {"name": "StatefulPartitionedCall/mobilebert/encoder/layer_._0/output/dense/Tensordot/Const_2", "shape": [1], "dtype": "int32"}, {"name": "StatefulPartitionedCall/mobilebert/encoder/layer_._0/output/dense/Tensordot/concat_1/axis", "shape": [], "dtype": "int32"}, {"name": "unknown_45", "shape": [128], "dtype": "float32"}, {"name": "StatefulPartitionedCall/mobilebert/encoder/layer_._0/ffn.2/output/dense/Tensordot/Const", "shape": [1], "dtype": "int32"}, {"name": "StatefulPartitionedCall/mobilebert/encoder/layer_._0/ffn.2/output/dense/Tensordot/axes", "shape": [1], "dtype": "int32"}, {"name": "StatefulPartitionedCall/mobilebert/encoder/layer_._0/ffn.2/output/dense/Tensordot/GatherV2_1/axis", "shape": [], "dtype": "int32"}, {"name": "StatefulPartitionedCall/mobilebert/encoder/layer_._0/ffn.2/output/dense/Tensordot/Const_1", "shape": [1], "dtype": "int32"}, {"name": "unknown_38", "shape": [1024, 128], "dtype": "float32"}, {"name": "StatefulPartitionedCall/mobilebert/encoder/layer_._0/ffn.2/intermediate/activation/mul/x", "shape": [], "dtype": "float32"}, {"name": "StatefulPartitionedCall/mobilebert/encoder/layer_._0/ffn.2/intermediate/activation/add/x", "shape": [], "dtype": "float32"}, {"name": "StatefulPartitionedCall/mobilebert/encoder/layer_._0/ffn.2/intermediate/dense/Tensordot/Const", "shape": [1], "dtype": "int32"}, {"name": "StatefulPartitionedCall/mobilebert/encoder/layer_._0/ffn.2/intermediate/dense/Tensordot/axes", "shape": [1], "dtype": "int32"}, {"name": "StatefulPartitionedCall/mobilebert/encoder/layer_._0/ffn.2/intermediate/dense/Tensordot/GatherV2_1/axis", "shape": [], "dtype": "int32"}, {"name": "StatefulPartitionedCall/mobilebert/encoder/layer_._0/ffn.2/intermediate/dense/Tensordot/Const_1", "shape": [1], "dtype": "int32"}, {"name": "unknown_36", "shape": [128, 1024], "dtype": "float32"}, {"name": "StatefulPartitionedCall/mobilebert/encoder/layer_._0/ffn.2/intermediate/dense/Tensordot/free", "shape": [2], "dtype": "int32"}, {"name": "StatefulPartitionedCall/mobilebert/encoder/layer_._0/ffn.2/intermediate/dense/Tensordot/GatherV2/axis", "shape": [], "dtype": "int32"}, {"name": "StatefulPartitionedCall/mobilebert/encoder/layer_._0/ffn.2/intermediate/dense/Tensordot/Const_2", "shape": [1], "dtype": "int32"}, {"name": "StatefulPartitionedCall/mobilebert/encoder/layer_._0/ffn.2/intermediate/dense/Tensordot/concat_1/axis", "shape": [], "dtype": "int32"}, {"name": "unknown_37", "shape": [1024], "dtype": "float32"}, {"name": "ConstantFolding/StatefulPartitionedCall/mobilebert/encoder/layer_._0/ffn.2/intermediate/activation/truediv_recip", "shape": [], "dtype": "float32"}, {"name": "StatefulPartitionedCall/mobilebert/encoder/layer_._0/ffn.2/output/dense/Tensordot/free", "shape": [2], "dtype": "int32"}, {"name": "StatefulPartitionedCall/mobilebert/encoder/layer_._0/ffn.2/output/dense/Tensordot/GatherV2/axis", "shape": [], "dtype": "int32"}, {"name": "StatefulPartitionedCall/mobilebert/encoder/layer_._0/ffn.2/output/dense/Tensordot/Const_2", "shape": [1], "dtype": "int32"}, {"name": "StatefulPartitionedCall/mobilebert/encoder/layer_._0/ffn.2/output/dense/Tensordot/concat_1/axis", "shape": [], "dtype": "int32"}, {"name": "unknown_39", "shape": [128], "dtype": "float32"}, {"name": "StatefulPartitionedCall/mobilebert/encoder/layer_._0/ffn.1/output/dense/Tensordot/Const", "shape": [1], "dtype": "int32"}, {"name": "StatefulPartitionedCall/mobilebert/encoder/layer_._0/ffn.1/output/dense/Tensordot/axes", "shape": [1], "dtype": "int32"}, {"name": "StatefulPartitionedCall/mobilebert/encoder/layer_._0/ffn.1/output/dense/Tensordot/GatherV2_1/axis", "shape": [], "dtype": "int32"}, {"name": "StatefulPartitionedCall/mobilebert/encoder/layer_._0/ffn.1/output/dense/Tensordot/Const_1", "shape": [1], "dtype": "int32"}, {"name": "unknown_32", "shape": [1024, 128], "dtype": "float32"}, {"name": "StatefulPartitionedCall/mobilebert/encoder/layer_._0/ffn.1/intermediate/activation/mul/x", "shape": [], "dtype": "float32"}, {"name": "StatefulPartitionedCall/mobilebert/encoder/layer_._0/ffn.1/intermediate/activation/add/x", "shape": [], "dtype": "float32"}, {"name": "StatefulPartitionedCall/mobilebert/encoder/layer_._0/ffn.1/intermediate/dense/Tensordot/Const", "shape": [1], "dtype": "int32"}, {"name": "StatefulPartitionedCall/mobilebert/encoder/layer_._0/ffn.1/intermediate/dense/Tensordot/axes", "shape": [1], "dtype": "int32"}, {"name": "StatefulPartitionedCall/mobilebert/encoder/layer_._0/ffn.1/intermediate/dense/Tensordot/GatherV2_1/axis", "shape": [], "dtype": "int32"}, {"name": "StatefulPartitionedCall/mobilebert/encoder/layer_._0/ffn.1/intermediate/dense/Tensordot/Const_1", "shape": [1], "dtype": "int32"}, {"name": "unknown_30", "shape": [128, 1024], "dtype": "float32"}, {"name": "StatefulPartitionedCall/mobilebert/encoder/layer_._0/ffn.1/intermediate/dense/Tensordot/free", "shape": [2], "dtype": "int32"}, {"name": "StatefulPartitionedCall/mobilebert/encoder/layer_._0/ffn.1/intermediate/dense/Tensordot/GatherV2/axis", "shape": [], "dtype": "int32"}, {"name": "StatefulPartitionedCall/mobilebert/encoder/layer_._0/ffn.1/intermediate/dense/Tensordot/Const_2", "shape": [1], "dtype": "int32"}, {"name": "StatefulPartitionedCall/mobilebert/encoder/layer_._0/ffn.1/intermediate/dense/Tensordot/concat_1/axis", "shape": [], "dtype": "int32"}, {"name": "unknown_31", "shape": [1024], "dtype": "float32"}, {"name": "ConstantFolding/StatefulPartitionedCall/mobilebert/encoder/layer_._0/ffn.1/intermediate/activation/truediv_recip", "shape": [], "dtype": "float32"}, {"name": "StatefulPartitionedCall/mobilebert/encoder/layer_._0/ffn.1/output/dense/Tensordot/free", "shape": [2], "dtype": "int32"}, {"name": "StatefulPartitionedCall/mobilebert/encoder/layer_._0/ffn.1/output/dense/Tensordot/GatherV2/axis", "shape": [], "dtype": "int32"}, {"name": "StatefulPartitionedCall/mobilebert/encoder/layer_._0/ffn.1/output/dense/Tensordot/Const_2", "shape": [1], "dtype": "int32"}, {"name": "StatefulPartitionedCall/mobilebert/encoder/layer_._0/ffn.1/output/dense/Tensordot/concat_1/axis", "shape": [], "dtype": "int32"}, {"name": "unknown_33", "shape": [128], "dtype": "float32"}, {"name": "StatefulPartitionedCall/mobilebert/encoder/layer_._0/ffn.0/output/dense/Tensordot/Const", "shape": [1], "dtype": "int32"}, {"name": "StatefulPartitionedCall/mobilebert/encoder/layer_._0/ffn.0/output/dense/Tensordot/axes", "shape": [1], "dtype": "int32"}, {"name": "StatefulPartitionedCall/mobilebert/encoder/layer_._0/ffn.0/output/dense/Tensordot/GatherV2_1/axis", "shape": [], "dtype": "int32"}, {"name": "StatefulPartitionedCall/mobilebert/encoder/layer_._0/ffn.0/output/dense/Tensordot/Const_1", "shape": [1], "dtype": "int32"}, {"name": "unknown_26", "shape": [1024, 128], "dtype": "float32"}, {"name": "StatefulPartitionedCall/mobilebert/encoder/layer_._0/ffn.0/intermediate/activation/mul/x", "shape": [], "dtype": "float32"}, {"name": "StatefulPartitionedCall/mobilebert/encoder/layer_._0/ffn.0/intermediate/activation/add/x", "shape": [], "dtype": "float32"}, {"name": "StatefulPartitionedCall/mobilebert/encoder/layer_._0/ffn.0/intermediate/dense/Tensordot/Const", "shape": [1], "dtype": "int32"}, {"name": "StatefulPartitionedCall/mobilebert/encoder/layer_._0/ffn.0/intermediate/dense/Tensordot/axes", "shape": [1], "dtype": "int32"}, {"name": "StatefulPartitionedCall/mobilebert/encoder/layer_._0/ffn.0/intermediate/dense/Tensordot/GatherV2_1/axis", "shape": [], "dtype": "int32"}, {"name": "StatefulPartitionedCall/mobilebert/encoder/layer_._0/ffn.0/intermediate/dense/Tensordot/Const_1", "shape": [1], "dtype": "int32"}, {"name": "unknown_24", "shape": [128, 1024], "dtype": "float32"}, {"name": "StatefulPartitionedCall/mobilebert/encoder/layer_._0/ffn.0/intermediate/dense/Tensordot/free", "shape": [2], "dtype": "int32"}, {"name": "StatefulPartitionedCall/mobilebert/encoder/layer_._0/ffn.0/intermediate/dense/Tensordot/GatherV2/axis", "shape": [], "dtype": "int32"}, {"name": "StatefulPartitionedCall/mobilebert/encoder/layer_._0/ffn.0/intermediate/dense/Tensordot/Const_2", "shape": [1], "dtype": "int32"}, {"name": "StatefulPartitionedCall/mobilebert/encoder/layer_._0/ffn.0/intermediate/dense/Tensordot/concat_1/axis", "shape": [], "dtype": "int32"}, {"name": "unknown_25", "shape": [1024], "dtype": "float32"}, {"name": "ConstantFolding/StatefulPartitionedCall/mobilebert/encoder/layer_._0/ffn.0/intermediate/activation/truediv_recip", "shape": [], "dtype": "float32"}, {"name": "StatefulPartitionedCall/mobilebert/encoder/layer_._0/ffn.0/output/dense/Tensordot/free", "shape": [2], "dtype": "int32"}, {"name": "StatefulPartitionedCall/mobilebert/encoder/layer_._0/ffn.0/output/dense/Tensordot/GatherV2/axis", "shape": [], "dtype": "int32"}, {"name": "StatefulPartitionedCall/mobilebert/encoder/layer_._0/ffn.0/output/dense/Tensordot/Const_2", "shape": [1], "dtype": "int32"}, {"name": "StatefulPartitionedCall/mobilebert/encoder/layer_._0/ffn.0/output/dense/Tensordot/concat_1/axis", "shape": [], "dtype": "int32"}, {"name": "unknown_27", "shape": [128], "dtype": "float32"}, {"name": "StatefulPartitionedCall/mobilebert/encoder/layer_._0/attention/output/dense/Tensordot/Const", "shape": [1], "dtype": "int32"}, {"name": "StatefulPartitionedCall/mobilebert/encoder/layer_._0/attention/output/dense/Tensordot/axes", "shape": [1], "dtype": "int32"}, {"name": "StatefulPartitionedCall/mobilebert/encoder/layer_._0/attention/output/dense/Tensordot/GatherV2_1/axis", "shape": [], "dtype": "int32"}, {"name": "StatefulPartitionedCall/mobilebert/encoder/layer_._0/attention/output/dense/Tensordot/Const_1", "shape": [1], "dtype": "int32"}, {"name": "unknown_20", "shape": [128, 128], "dtype": "float32"}, {"name": "StatefulPartitionedCall/mobilebert/encoder/layer_._0/attention/self/query/Tensordot/Const", "shape": [1], "dtype": "int32"}, {"name": "StatefulPartitionedCall/mobilebert/encoder/layer_._0/attention/self/query/Tensordot/axes", "shape": [1], "dtype": "int32"}, {"name": "StatefulPartitionedCall/mobilebert/encoder/layer_._0/attention/self/query/Tensordot/GatherV2_1/axis", "shape": [], "dtype": "int32"}, {"name": "StatefulPartitionedCall/mobilebert/encoder/layer_._0/attention/self/query/Tensordot/Const_1", "shape": [1], "dtype": "int32"}, {"name": "unknown_14", "shape": [128, 128], "dtype": "float32"}, {"name": "StatefulPartitionedCall/mobilebert/encoder/layer_._0/attention/self/query/Tensordot/free", "shape": [2], "dtype": "int32"}, {"name": "StatefulPartitionedCall/mobilebert/encoder/layer_._0/attention/self/query/Tensordot/GatherV2/axis", "shape": [], "dtype": "int32"}, {"name": "StatefulPartitionedCall/mobilebert/encoder/layer_._0/attention/self/query/Tensordot/Const_2", "shape": [1], "dtype": "int32"}, {"name": "StatefulPartitionedCall/mobilebert/encoder/layer_._0/attention/self/query/Tensordot/concat_1/axis", "shape": [], "dtype": "int32"}, {"name": "unknown_15", "shape": [128], "dtype": "float32"}, {"name": "StatefulPartitionedCall/mobilebert/encoder/layer_._0/attention/self/Reshape/shape", "shape": [4], "dtype": "int32"}, {"name": "StatefulPartitionedCall/mobilebert/encoder/layer_._0/attention/self/transpose/perm", "shape": [4], "dtype": "int32"}, {"name": "StatefulPartitionedCall/mobilebert/encoder/layer_._0/attention/self/key/Tensordot/Const", "shape": [1], "dtype": "int32"}, {"name": "StatefulPartitionedCall/mobilebert/encoder/layer_._0/attention/self/key/Tensordot/axes", "shape": [1], "dtype": "int32"}, {"name": "StatefulPartitionedCall/mobilebert/encoder/layer_._0/attention/self/key/Tensordot/GatherV2_1/axis", "shape": [], "dtype": "int32"}, {"name": "StatefulPartitionedCall/mobilebert/encoder/layer_._0/attention/self/key/Tensordot/Const_1", "shape": [1], "dtype": "int32"}, {"name": "unknown_16", "shape": [128, 128], "dtype": "float32"}, {"name": "StatefulPartitionedCall/mobilebert/encoder/layer_._0/bottleneck/attention/dense/Tensordot/Const", "shape": [1], "dtype": "int32"}, {"name": "StatefulPartitionedCall/mobilebert/encoder/layer_._0/bottleneck/attention/dense/Tensordot/axes", "shape": [1], "dtype": "int32"}, {"name": "StatefulPartitionedCall/mobilebert/encoder/layer_._0/bottleneck/attention/dense/Tensordot/GatherV2_1/axis", "shape": [], "dtype": "int32"}, {"name": "StatefulPartitionedCall/mobilebert/encoder/layer_._0/bottleneck/attention/dense/Tensordot/Const_1", "shape": [1], "dtype": "int32"}, {"name": "unknown_10", "shape": [256, 128], "dtype": "float32"}, {"name": "StatefulPartitionedCall/mobilebert/encoder/layer_._0/bottleneck/attention/dense/Tensordot/free", "shape": [2], "dtype": "int32"}, {"name": "StatefulPartitionedCall/mobilebert/encoder/layer_._0/bottleneck/attention/dense/Tensordot/GatherV2/axis", "shape": [], "dtype": "int32"}, {"name": "StatefulPartitionedCall/mobilebert/encoder/layer_._0/bottleneck/attention/dense/Tensordot/Const_2", "shape": [1], "dtype": "int32"}, {"name": "StatefulPartitionedCall/mobilebert/encoder/layer_._0/bottleneck/attention/dense/Tensordot/concat_1/axis", "shape": [], "dtype": "int32"}, {"name": "unknown_11", "shape": [128], "dtype": "float32"}, {"name": "unknown_12", "shape": [128], "dtype": "float32"}, {"name": "unknown_13", "shape": [128], "dtype": "float32"}, {"name": "StatefulPartitionedCall/mobilebert/encoder/layer_._0/attention/self/key/Tensordot/free", "shape": [2], "dtype": "int32"}, {"name": "StatefulPartitionedCall/mobilebert/encoder/layer_._0/attention/self/key/Tensordot/GatherV2/axis", "shape": [], "dtype": "int32"}, {"name": "StatefulPartitionedCall/mobilebert/encoder/layer_._0/attention/self/key/Tensordot/Const_2", "shape": [1], "dtype": "int32"}, {"name": "StatefulPartitionedCall/mobilebert/encoder/layer_._0/attention/self/key/Tensordot/concat_1/axis", "shape": [], "dtype": "int32"}, {"name": "unknown_17", "shape": [128], "dtype": "float32"}, {"name": "StatefulPartitionedCall/mobilebert/encoder/layer_._0/attention/self/Reshape_1/shape", "shape": [4], "dtype": "int32"}, {"name": "StatefulPartitionedCall/mobilebert/encoder/layer_._0/attention/self/transpose_1/perm", "shape": [4], "dtype": "int32"}, {"name": "ConstantFolding/StatefulPartitionedCall/mobilebert/encoder/layer_._0/attention/self/truediv_recip", "shape": [], "dtype": "float32"}, {"name": "StatefulPartitionedCall/mobilebert/sub/x", "shape": [], "dtype": "float32"}, {"name": "StatefulPartitionedCall/mobilebert/strided_slice_1/stack", "shape": [4], "dtype": "int32"}, {"name": "StatefulPartitionedCall/mobilebert/strided_slice_1/stack_1", "shape": [4], "dtype": "int32"}, {"name": "StatefulPartitionedCall/mobilebert/strided_slice_1/stack_2", "shape": [4], "dtype": "int32"}, {"name": "StatefulPartitionedCall/mobilebert/mul/y", "shape": [], "dtype": "float32"}, {"name": "StatefulPartitionedCall/mobilebert/encoder/layer_._0/attention/self/value/Tensordot/Const", "shape": [1], "dtype": "int32"}, {"name": "StatefulPartitionedCall/mobilebert/encoder/layer_._0/attention/self/value/Tensordot/axes", "shape": [1], "dtype": "int32"}, {"name": "StatefulPartitionedCall/mobilebert/encoder/layer_._0/attention/self/value/Tensordot/GatherV2_1/axis", "shape": [], "dtype": "int32"}, {"name": "StatefulPartitionedCall/mobilebert/encoder/layer_._0/attention/self/value/Tensordot/Const_1", "shape": [1], "dtype": "int32"}, {"name": "unknown_18", "shape": [256, 128], "dtype": "float32"}, {"name": "StatefulPartitionedCall/mobilebert/encoder/layer_._0/attention/self/value/Tensordot/free", "shape": [2], "dtype": "int32"}, {"name": "StatefulPartitionedCall/mobilebert/encoder/layer_._0/attention/self/value/Tensordot/GatherV2/axis", "shape": [], "dtype": "int32"}, {"name": "StatefulPartitionedCall/mobilebert/encoder/layer_._0/attention/self/value/Tensordot/Const_2", "shape": [1], "dtype": "int32"}, {"name": "StatefulPartitionedCall/mobilebert/encoder/layer_._0/attention/self/value/Tensordot/concat_1/axis", "shape": [], "dtype": "int32"}, {"name": "unknown_19", "shape": [128], "dtype": "float32"}, {"name": "StatefulPartitionedCall/mobilebert/encoder/layer_._0/attention/self/Reshape_2/shape", "shape": [4], "dtype": "int32"}, {"name": "StatefulPartitionedCall/mobilebert/encoder/layer_._0/attention/self/transpose_2/perm", "shape": [4], "dtype": "int32"}, {"name": "StatefulPartitionedCall/mobilebert/encoder/layer_._0/attention/self/transpose_3/perm", "shape": [4], "dtype": "int32"}, {"name": "StatefulPartitionedCall/mobilebert/encoder/layer_._0/attention/self/Reshape_3/shape", "shape": [3], "dtype": "int32"}, {"name": "StatefulPartitionedCall/mobilebert/encoder/layer_._0/attention/output/dense/Tensordot/free", "shape": [2], "dtype": "int32"}, {"name": "StatefulPartitionedCall/mobilebert/encoder/layer_._0/attention/output/dense/Tensordot/GatherV2/axis", "shape": [], "dtype": "int32"}, {"name": "StatefulPartitionedCall/mobilebert/encoder/layer_._0/attention/output/dense/Tensordot/Const_2", "shape": [1], "dtype": "int32"}, {"name": "StatefulPartitionedCall/mobilebert/encoder/layer_._0/attention/output/dense/Tensordot/concat_1/axis", "shape": [], "dtype": "int32"}, {"name": "unknown_21", "shape": [128], "dtype": "float32"}, {"name": "StatefulPartitionedCall/mobilebert/encoder/layer_._0/bottleneck/input/dense/Tensordot/Const", "shape": [1], "dtype": "int32"}, {"name": "StatefulPartitionedCall/mobilebert/encoder/layer_._0/bottleneck/input/dense/Tensordot/axes", "shape": [1], "dtype": "int32"}, {"name": "StatefulPartitionedCall/mobilebert/encoder/layer_._0/bottleneck/input/dense/Tensordot/GatherV2_1/axis", "shape": [], "dtype": "int32"}, {"name": "StatefulPartitionedCall/mobilebert/encoder/layer_._0/bottleneck/input/dense/Tensordot/Const_1", "shape": [1], "dtype": "int32"}, {"name": "unknown_6", "shape": [256, 128], "dtype": "float32"}, {"name": "StatefulPartitionedCall/mobilebert/encoder/layer_._0/bottleneck/input/dense/Tensordot/free", "shape": [2], "dtype": "int32"}, {"name": "StatefulPartitionedCall/mobilebert/encoder/layer_._0/bottleneck/input/dense/Tensordot/GatherV2/axis", "shape": [], "dtype": "int32"}, {"name": "StatefulPartitionedCall/mobilebert/encoder/layer_._0/bottleneck/input/dense/Tensordot/Const_2", "shape": [1], "dtype": "int32"}, {"name": "StatefulPartitionedCall/mobilebert/encoder/layer_._0/bottleneck/input/dense/Tensordot/concat_1/axis", "shape": [], "dtype": "int32"}, {"name": "unknown_7", "shape": [128], "dtype": "float32"}, {"name": "unknown_8", "shape": [128], "dtype": "float32"}, {"name": "unknown_9", "shape": [128], "dtype": "float32"}, {"name": "unknown_22", "shape": [128], "dtype": "float32"}, {"name": "unknown_23", "shape": [128], "dtype": "float32"}, {"name": "unknown_28", "shape": [128], "dtype": "float32"}, {"name": "unknown_29", "shape": [128], "dtype": "float32"}, {"name": "unknown_34", "shape": [128], "dtype": "float32"}, {"name": "unknown_35", "shape": [128], "dtype": "float32"}, {"name": "unknown_40", "shape": [128], "dtype": "float32"}, {"name": "unknown_41", "shape": [128], "dtype": "float32"}, {"name": "unknown_46", "shape": [128], "dtype": "float32"}, {"name": "unknown_47", "shape": [128], "dtype": "float32"}, {"name": "StatefulPartitionedCall/mobilebert/encoder/layer_._0/output/bottleneck/dense/Tensordot/free", "shape": [2], "dtype": "int32"}, {"name": "StatefulPartitionedCall/mobilebert/encoder/layer_._0/output/bottleneck/dense/Tensordot/GatherV2/axis", "shape": [], "dtype": "int32"}, {"name": "StatefulPartitionedCall/mobilebert/encoder/layer_._0/output/bottleneck/dense/Tensordot/Const_2", "shape": [1], "dtype": "int32"}, {"name": "StatefulPartitionedCall/mobilebert/encoder/layer_._0/output/bottleneck/dense/Tensordot/concat_1/axis", "shape": [], "dtype": "int32"}, {"name": "unknown_49", "shape": [256], "dtype": "float32"}, {"name": "StatefulPartitionedCall/mobilebert/embeddings/embedding_transformation/Tensordot/Const", "shape": [1], "dtype": "int32"}, {"name": "StatefulPartitionedCall/mobilebert/embeddings/embedding_transformation/Tensordot/axes", "shape": [1], "dtype": "int32"}, {"name": "StatefulPartitionedCall/mobilebert/embeddings/embedding_transformation/Tensordot/GatherV2_1/axis", "shape": [], "dtype": "int32"}, {"name": "StatefulPartitionedCall/mobilebert/embeddings/embedding_transformation/Tensordot/Const_1", "shape": [1], "dtype": "int32"}, {"name": "unknown_0", "shape": [384, 256], "dtype": "float32"}, {"name": "StatefulPartitionedCall/mobilebert/embeddings/strided_slice_2/stack", "shape": [2], "dtype": "int32"}, {"name": "StatefulPartitionedCall/mobilebert/embeddings/strided_slice_2/stack_1", "shape": [2], "dtype": "int32"}, {"name": "StatefulPartitionedCall/mobilebert/embeddings/strided_slice_2/stack_2", "shape": [2], "dtype": "int32"}, {"name": "StatefulPartitionedCall/mobilebert/embeddings/Pad/paddings", "shape": [3, 2], "dtype": "int32"}, {"name": "unknown", "shape": [30522, 128], "dtype": "float32"}, {"name": "StatefulPartitionedCall/mobilebert/embeddings/Gather/axis", "shape": [], "dtype": "int32"}, {"name": "StatefulPartitionedCall/mobilebert/embeddings/strided_slice_3/stack", "shape": [2], "dtype": "int32"}, {"name": "StatefulPartitionedCall/mobilebert/embeddings/strided_slice_3/stack_1", "shape": [2], "dtype": "int32"}, {"name": "StatefulPartitionedCall/mobilebert/embeddings/strided_slice_3/stack_2", "shape": [2], "dtype": "int32"}, {"name": "StatefulPartitionedCall/mobilebert/embeddings/Pad_1/paddings", "shape": [3, 2], "dtype": "int32"}, {"name": "StatefulPartitionedCall/mobilebert/embeddings/concat/axis", "shape": [], "dtype": "int32"}, {"name": "StatefulPartitionedCall/mobilebert/embeddings/embedding_transformation/Tensordot/free", "shape": [2], "dtype": "int32"}, {"name": "StatefulPartitionedCall/mobilebert/embeddings/embedding_transformation/Tensordot/GatherV2/axis", "shape": [], "dtype": "int32"}, {"name": "StatefulPartitionedCall/mobilebert/embeddings/embedding_transformation/Tensordot/Const_2", "shape": [1], "dtype": "int32"}, {"name": "StatefulPartitionedCall/mobilebert/embeddings/embedding_transformation/Tensordot/concat_1/axis", "shape": [], "dtype": "int32"}, {"name": "unknown_1", "shape": [256], "dtype": "float32"}, {"name": "unknown_2", "shape": [512, 256], "dtype": "float32"}, {"name": "StatefulPartitionedCall/mobilebert/embeddings/range/start", "shape": [], "dtype": "int32"}, {"name": "StatefulPartitionedCall/mobilebert/embeddings/strided_slice/stack", "shape": [1], "dtype": "int32"}, {"name": "StatefulPartitionedCall/mobilebert/embeddings/strided_slice/stack_1", "shape": [1], "dtype": "int32"}, {"name": "StatefulPartitionedCall/mobilebert/embeddings/strided_slice/stack_2", "shape": [1], "dtype": "int32"}, {"name": "StatefulPartitionedCall/mobilebert/embeddings/range/delta", "shape": [], "dtype": "int32"}, {"name": "StatefulPartitionedCall/mobilebert/embeddings/strided_slice_1/stack", "shape": [2], "dtype": "int32"}, {"name": "StatefulPartitionedCall/mobilebert/embeddings/strided_slice_1/stack_1", "shape": [2], "dtype": "int32"}, {"name": "StatefulPartitionedCall/mobilebert/embeddings/strided_slice_1/stack_2", "shape": [2], "dtype": "int32"}, {"name": "StatefulPartitionedCall/mobilebert/embeddings/position_embeddings/embedding_lookup/axis", "shape": [], "dtype": "int32"}, {"name": "unknown_3", "shape": [2, 256], "dtype": "float32"}, {"name": "StatefulPartitionedCall/mobilebert/Fill/dims/0", "shape": [], "dtype": "int32"}, {"name": "StatefulPartitionedCall/mobilebert/strided_slice/stack", "shape": [1], "dtype": "int32"}, {"name": "StatefulPartitionedCall/mobilebert/strided_slice/stack_1", "shape": [1], "dtype": "int32"}, {"name": "StatefulPartitionedCall/mobilebert/strided_slice/stack_2", "shape": [1], "dtype": "int32"}, {"name": "StatefulPartitionedCall/mobilebert/Fill/value", "shape": [], "dtype": "int32"}, {"name": "StatefulPartitionedCall/mobilebert/embeddings/token_type_embeddings/embedding_lookup/axis", "shape": [], "dtype": "int32"}, {"name": "unknown_4", "shape": [256], "dtype": "float32"}, {"name": "unknown_5", "shape": [256], "dtype": "float32"}, {"name": "unknown_50", "shape": [256], "dtype": "float32"}, {"name": "unknown_51", "shape": [256], "dtype": "float32"}, {"name": "unknown_96", "shape": [256], "dtype": "float32"}, {"name": "unknown_97", "shape": [256], "dtype": "float32"}, {"name": "StatefulPartitionedCall/classifier/Tensordot/free", "shape": [2], "dtype": "int32"}, {"name": "StatefulPartitionedCall/classifier/Tensordot/GatherV2/axis", "shape": [], "dtype": "int32"}, {"name": "StatefulPartitionedCall/classifier/Tensordot/Const_2", "shape": [1], "dtype": "int32"}, {"name": "StatefulPartitionedCall/classifier/Tensordot/concat_1/axis", "shape": [], "dtype": "int32"}, {"name": "unknown_99", "shape": [13], "dtype": "float32"}]}]}